p1_navigation/checkpoint.pth (torch_old, 173596 bytes, 6 tensors)

fc1.weight f4 [256, 37]
000000 63 5a 39 be df 3e e3 3d 3c 76 b6 bd 37 e6 9d bd
       -0.18100886 0.11095976 -0.0890927 -0.077099256
000010 47 04 b4 be 5b f0 64 be 8d 50 b8 bd 9b ad 33 3e
       -0.35159513 -0.22357313 -0.08999739 0.17546694
000020 f0 a7 fd 3d af 37 b7 bd 43 08 1c bd b1 91 a6 bd
       0.12385547 -0.08946168 -0.038093816 -0.08133257
000030 eb 23 1d be 81 6b f3 bc 64 e8 a8 3d 45 87 34 be
       -0.15345733 -0.029714348 0.0824745 -0.17629726
000040 31 14 fc 3d 72 89 04 3e c0 68 53 be 2b a9 83 be
       0.12308539 0.12943056 -0.20645428 -0.25715002
000050 a3 c2 e2 3d b1 03 14 3e cd 04 53 bd ec a9 17 3c
       0.1107228 0.14454533 -0.05151825 0.009256821
000060 d2 19 28 3c 90 8a f5 bb 3c dc 06 3e 3f 1e 98 be
       0.010260062 -0.0074933246 0.1316995 -0.29710576
000070 35 87 5d be 1c 3b 1c be 7e be 7b be d7 1f 24 3e
       -0.21633609 -0.15256923 -0.24584386 0.16027771
000080 8d 91 e4 bd f8 f1 8a 3d 30 cc 07 be a0 2b 2c bd
       -0.11160574 0.06784433 -0.13261485 -0.04203379
000090 5c 50 94 39 b3 77 22 3d 51 7c 94 bb ad 4d fd 3d
       0.00028288632 0.039664935 -0.0045314212 0.12368331
0000a0 f0 3b 21 3d 83 55 57 be e2 0a 21 bf 5f ec 45 3e
       0.0393638 -0.21028714 -0.6290723 0.1932845
0000b0 bf 14 22 3e 8d 04 68 be 05 50 57 bf ca af f9 bc
       0.15828227 -0.22657986 -0.84106475 -0.03047933
0000c0 4e ef 93 bd a8 fa 01 3d 0f bf 54 bc f6 72 49 3e
       -0.07223378 0.031733185 -0.012985005 0.1967276
0000d0 00 22 07 bd 13 63 01 3e a0 7d 0b 3e 7c 1d c6 be
       -0.03299141 0.1263545 0.13622141 -0.3869437
0000e0 46 1e a7 be d7 6a 9e be 35 0d 0f be 02 39 17 bb
       -0.32640284 -0.30940887 -0.13969882 -0.002307475
0000f0 85 d7 a4 3c 39 db c1 bd 2a ca eb be bc 81 f0 3d
       0.020122299 -0.094656415 -0.46052676 0.11743495
000100 d7 01 2d 3e e8 29 29 be bd 22 3e bf 4d 1e 7d be
       0.16895233 -0.16519892 -0.74271756 -0.2471859
000110 3e 75 90 3e 4b 03 8e 3e cc 01 bd be 66 5c 1d bf
       0.2821445 0.27736887 -0.36915433 -0.61469114
000120 8f f4 c3 bc 9c 78 23 3c 13 d4 d0 3d 29 4b f1 3c
       -0.023920326 0.009977486 0.101967 0.029454784
000130 d2 1c 51 3d 90 a3 ce 3c a7 6c 15 3e e5 0c 05 bf
       0.051052876 0.025224477 0.14592229 -0.519728
000140 e3 e0 bb 3c 85 6c 8f 3e 6d 4e 39 3e 93 69 75 be
       0.022934383 0.2801248 0.18096323 -0.23966055
000150 34 9e 19 bd 43 60 90 bd 8b 07 07 bd 8f 42 0f 3c
       -0.03750439 -0.070496105 -0.032966178 0.008743896
000160 10 59 36 3d b3 7b 1e bc ee 0e 02 3d 9b 0b 1c bc
       0.04451853 -0.009673047 0.03175252 -0.009524251
000170 43 ff e6 3c df 5c 70 3e 89 51 e7 be 3b 51 ee 3d
       0.02819789 0.23472928 -0.45179394 0.11636587
000180 ac 82 de 3d 8c a8 12 bd 62 cd 89 be 1e 6c 17 be
       0.108647674 -0.03580527 -0.26914507 -0.14787337
000190 e3 34 0f 3e 54 80 de 3d 4a 4b 0e 3d 66 ed bb 3c
       0.13985018 0.108643204 0.03473977 0.022940349
0001a0 22 b7 90 be 00 5d 06 ba bd f9 4d 3c 7c 0b 86 be
       -0.2826472 -0.00051255524 0.012571749 -0.26180637
0001b0 cc 31 2f be fe 19 96 bb e0 57 51 b9 a4 2e 3b 3e
       -0.1710884 -0.004580735 -0.00019964529 0.1827951
0001c0 17 4d af be 5c f7 89 3d 90 ac 0c 3e 78 5c 7b be
       -0.34238502 0.06736633 0.13737702 -0.24546993
0001d0 38 fa 85 bc b0 83 9f be b6 39 db 3d 43 26 14 3e
       -0.016354665 -0.31155157 0.10704367 0.1446772
0001e0 c1 e2 38 be c0 5f 04 3e be d8 fb bd 5d c5 40 bc
       -0.1805525 0.1292715 -0.122972 -0.011765805
0001f0 ce 0e f5 bd 51 7f 2d be 21 c1 ba 3d 22 88 24 3d
       -0.119657144 -0.16943099 0.09118868 0.04016889
000200 b2 13 54 be 95 07 cc be b2 71 45 bf 54 75 37 3c
       -0.20710638 -0.39849535 -0.7712661 0.011197407
000210 1d 77 e6 bd c7 58 45 bc 49 38 38 3e dc d9 e7 3d
       -0.11253188 -0.012045092 0.17990221 0.1132085
000220 56 a5 33 bc c8 17 a0 3c 0e 29 bb 3d a0 84 59 3d
       -0.010964712 0.01954259 0.0913869 0.053104997
000230 79 64 ed 3d 9f bf c5 3d c0 e1 73 bd 94 19 88 3d
       0.11591429 0.096556894 -0.059541464 0.06645504
000240 e6 d1 b9 bc 2b 9b 33 bd a7 ef b5 3d 83 58 b4 3b
       -0.022683095 -0.04384915 0.08883601 0.0055037155
000250 75 63 f2 bd 65 65 b1 bd 4f e6 df bd 7a 05 08 be
       -0.11835376 -0.086619176 -0.109326 -0.13283339
000260 88 f0 f3 bc eb 1f 4c 3e 76 ee 9e be 3f 15 aa be
       -0.02977778 0.1993405 -0.31041306 -0.33219334
000270 86 11 0c bf d0 0c d6 bf 05 e8 15 3a d6 7f 3f 3c
       -0.5471424 -1.672266 0.00057184725 0.011688193
000280 ff 9b e6 bc ad 40 10 bd 6b 8d bc bd d5 4e cb bd
       -0.028150557 -0.03521793 -0.09206661 -0.099271454
000290 9e 66 ad bd 9f 71 e0 bb c9 97 58 3d 96 a7 3e 3e
       -0.08466838 -0.006849482 0.05287913 0.18618616
0002a0 64 df 9a bc 5b 40 cd bc 1e f6 b7 3c 63 66 ec 3d
       -0.01890535 -0.025055101 0.022456225 0.11542966
0002b0 2c 5d 51 3e e3 9a dd bb 6b 97 6f 3d 6f 3b 91 3d
       0.20445698 -0.0067628487 0.058494013 0.07091414
0002c0 ed 9f 08 3e c9 1b e5 3d 2d 63 dd 3c a2 2d 47 3d
       0.13342257 0.1118694 0.02702483 0.048627503
0002d0 f0 6c 03 3e cd f6 c8 3d f7 f4 2b 3e 47 86 21 3c
       0.12834525 0.098126985 0.16792665 0.009858674
0002e0 c8 85 46 ba 57 ab 17 bd 87 6b 70 bd b4 13 25 bc
       -0.00075730355 -0.037028637 -0.058696296 -0.010075498
0002f0 20 3f 8d 3c f7 d0 6e 3d d8 04 8b 3e 09 2a ce be
       0.017242014 0.058304753 0.27152133 -0.40266445
000300 21 38 dd be 47 72 d2 be c9 34 fa bf c6 32 d5 bc
       -0.43206885 -0.41102812 -1.9547359 -0.026025187
000310 8b 1f 1b bc 6b 07 62 bd 65 59 a0 bd f4 8d 03 ba
       -0.00946797 -0.055182856 -0.07829551 -0.0005018406
000320 15 91 d3 bc cb 53 93 bc 9d a0 54 bd fd b7 f9 bc
       -0.025826016 -0.017984292 -0.051910985 -0.03048324
000330 35 f5 b1 bd 14 8e 96 3d da 91 21 3d bb 29 d0 3d
       -0.08689348 0.07351318 0.039445736 0.101642095
000340 87 d2 09 3e 2f 85 dc 3d 8c ad 2d bd 0f 76 3b bd
       0.13459216 0.1076759 -0.042401835 -0.045766886
000350 94 59 9b 3c 5a 48 39 3c 73 b0 0d 3e 5b 84 34 bd
       0.018963613 0.011308754 0.13836841 -0.044071537
000360 3d b6 99 bc 80 e8 bf 3c 41 70 02 3d 14 f0 22 3e
       -0.018763656 0.023426294 0.031845335 0.15911895
000370 e1 04 17 bc 20 92 f9 3b c7 17 55 3d e4 71 db bd
       -0.009217472 0.0076162964 0.05202463 -0.10715082
000380 27 2b eb bd b4 32 85 bd 88 12 91 bd 17 27 61 bd
       -0.1148284 -0.065038115 -0.07083613 -0.05496892
000390 22 12 a5 bd 9b ee 28 bd 6a 6e b3 bd 91 1a 75 3e
       -0.08060099 -0.041243177 -0.08761294 0.23935916
0003a0 ae fe 27 be 20 58 2a 3e 51 12 b2 3b fc d7 15 be
       -0.16405746 0.1663518 0.0054343124 -0.14633173
0003b0 18 db 58 3e 4d 53 0a be f9 74 c6 be 13 2d 9c bd
       0.21177328 -0.13508339 -0.38761118 -0.07625785
0003c0 4c c8 09 3d 78 6f 40 3e 29 91 1d be 42 09 15 bd
       0.033638284 0.18792522 -0.15387405 -0.036385782
0003d0 db 20 c8 3c 2e f3 d2 bd 1f 68 32 3e 03 c5 70 be
       0.02442973 -0.10300289 0.17422532 -0.23512654
0003e0 b1 31 ec be 44 31 39 be 81 fa 79 3e 54 8e ad 3d
       -0.46131662 -0.180852 0.24411966 0.084744126
0003f0 8a 41 6a 3e 15 88 73 be e2 4a 8b be bb 8d 4e bd
       0.22876564 -0.2378238 -0.2720557 -0.050428133

fc1.bias f4 [256]
000000 33 2a d9 bc 90 fc 10 3d cb 07 7d bd 3b b1 27 bd
       -0.02650938 0.035397112 -0.06177501 -0.040940505
000010 91 ca 56 3d b3 2c 8d 3d 21 ec 64 be 00 de 26 be
       0.052439276 0.06893291 -0.22355701 -0.16295624
000020 71 e1 4d be 38 cd 91 be 0c 9f 7c 3d f8 75 f9 3d
       -0.2010553 -0.28476882 0.061675116 0.12180704
000030 8b 43 3b be fc 74 37 be a8 91 2c be 57 88 76 bd
       -0.18287484 -0.1791572 -0.16852438 -0.060188618
000040 da a3 5e 3c 98 17 9f bc 71 06 29 be 66 45 94 be
       0.01358887 -0.01942043 -0.16506363 -0.28959197
000050 9a 82 a5 bd c8 23 de bc ab d6 78 3c 20 d5 0f be
       -0.08081551 -0.027116671 0.0151879 -0.14046144
000060 cd 50 61 bd f9 5a 03 3d 78 bb af bc e7 8c 75 3d
       -0.0550087 0.03206918 -0.021451697 0.059948828
000070 fa 5c 5d bc 94 53 84 3d 23 09 c9 3d da f7 b5 bd
       -0.013510937 0.06461254 0.09816196 -0.088851646
000080 1a 26 f2 bd f7 c7 a0 bc ab 59 52 bd 44 47 c4 3d
       -0.118236735 -0.0196266 -0.051355045 0.09583905
000090 bf 5d 98 bd 68 01 eb bb ca 5b 25 be 3b 39 a1 3d
       -0.07439756 -0.0071717985 -0.16148296 0.07872244
0000a0 5b 46 f3 bd 94 09 49 be 2e 2c 56 3d 8a 67 13 bd
       -0.118786536 -0.1963256 0.052288227 -0.035987414
0000b0 8a e1 1f be 39 43 ce bd 54 a6 5a be dc 20 47 be
       -0.1561338 -0.100714155 -0.21352512 -0.19446129
0000c0 41 ea d9 bd 25 62 00 bd 61 ed 0f be 5c e3 a8 3d
       -0.106403835 -0.031343598 -0.14055397 0.0824649
0000d0 57 5e 8f bd ac ab 3b be c6 1f 80 bd e6 e9 c7 bd
       -0.07000416 -0.18327206 -0.0625606 -0.097614095
0000e0 5e 2a ea 3d e5 37 22 be 85 87 ca 3d 41 fd 80 3d
       0.11433862 -0.15841635 0.098891295 0.06298304
0000f0 49 f8 e7 3d 54 79 f7 bc 1b 54 97 3c a1 7b bb bd
       0.113266535 -0.030209221 0.018472722 -0.0915444
000100 0e 7d 20 bc e2 85 78 bd 69 e1 57 be dc 39 5f be
       -0.00979544 -0.060674556 -0.21082081 -0.21799415
000110 43 01 66 be 45 a2 d0 bc 1e bd 38 be bf 2c e5 3b
       -0.22461419 -0.025468001 -0.18040892 0.0069938595
000120 a0 b2 94 bd ac 9d 45 3d 4a 14 39 bd b8 45 e9 bd
       -0.072606325 0.04824607 -0.045185365 -0.11390251
000130 87 a3 21 3e 8f 26 4f bd 27 2f f8 bd 56 26 81 3c
       0.15785037 -0.05057388 -0.121183686 0.01576535
000140 0f 8a 60 be 3a 9f 2c 3d 40 74 c9 bd a9 5d 09 bd
       -0.21927665 0.042144038 -0.09836626 -0.033536587
000150 16 b8 17 3d d3 9c ae bd 55 9e d6 bd cb 9b 9b 3d
       0.037040792 -0.085260056 -0.10479418 0.075980745
000160 00 ba d2 3d 74 1b 4f bc 6c a9 00 3e 5a de 45 be
       0.10289383 -0.012640823 0.1256463 -0.19323102
000170 72 31 02 be a3 91 c1 3d 99 13 01 be fd 14 07 3d
       -0.12714174 0.09451606 -0.12605132 0.032979
000180 53 28 61 bd fd a0 67 be 7b 1a 59 3c 54 07 db 3d
       -0.054970097 -0.22620006 0.013250942 0.10694757
000190 95 b8 28 be 2f 16 88 be bc 5c 21 be 07 9e 2e bd
       -0.16476662 -0.26579425 -0.15758032 -0.042631175
0001a0 26 b3 04 be fe 08 92 be 68 17 73 3d 56 54 5a be
       -0.12958965 -0.28522485 0.059348494 -0.21321234
0001b0 d6 01 71 be cb 64 8f bc 10 a5 b3 bc 20 40 44 3b
       -0.23535857 -0.017504117 -0.021929294 0.0029945448
0001c0 44 9c f1 3c c0 81 c2 bd bf 6f 86 3c e4 99 5b be
       0.029493459 -0.09497404 0.016410707 -0.21445423
0001d0 82 6e 72 be 02 d0 1c bd c9 92 2e be 42 ed c4 bd
       -0.23674968 -0.03828431 -0.17048182 -0.09615566
0001e0 4c 93 af bd fc bc f7 bd cc ff 33 be ef 61 08 3c
       -0.085730165 -0.12096593 -0.17578048 0.00832413
0001f0 ac 7e 81 be cb de bd bd 3a 52 e2 bc 7e a2 29 3e
       -0.25291955 -0.0927101 -0.0276271 0.16565892
000200 00 61 c1 3d a7 16 32 bd 5c 6d 0a bc 07 08 69 3d
       0.094423294 -0.043478634 -0.008448925 0.05689242
000210 73 bd 6c 3d d0 30 a3 bd e7 cc aa bd 9d 69 db bd
       0.05779786 -0.079682946 -0.08339863 -0.107135035
000220 35 a9 15 be d3 b2 6e be dc af 0b b8 75 b3 2b be
       -0.14615329 -0.23310404 -3.3303964e-05 -0.16767676
000230 1e 0f cf bd 82 56 b9 bd 4c 86 bd 3c 99 5f 23 be
       -0.10110305 -0.09049703 0.023135327 -0.15954436
000240 a7 d4 07 be 09 1f cc bd 76 fd 62 be f9 a1 b9 3d
       -0.13264714 -0.09966857 -0.22167 0.09064097
000250 c8 ab 13 be af a9 a8 3d 4b e4 85 bd 4a 1f 05 be
       -0.14420998 0.082354896 -0.06537684 -0.13000217
000260 49 2f 51 be 26 c8 5f be 1f b3 67 bd da 61 8f bc
       -0.20428194 -0.21853694 -0.056567308 -0.017502714
000270 63 65 87 bc 2a f7 3c be 9a 04 98 bd 73 62 11 3d
       -0.016527837 -0.1845366 -0.07422753 0.03549428
000280 ac 97 19 bb 9b 2c 05 3e 63 70 ac 3d 0b 5f ee bd
       -0.002343635 0.13005297 0.084198736 -0.11639222
000290 ff 10 e3 bc 1d 7b f2 bd 68 30 c3 bd 60 8e 33 be
       -0.027718065 -0.11839888 -0.09530717 -0.1753478
0002a0 42 cd 1b be 20 77 ff bd 6b 8b bd 3d b1 dd 31 be
       -0.15215018 -0.12473893 0.092551075 -0.17369725
0002b0 17 d8 9b bd 8c 8c 76 3d 94 b0 8c bd d6 fb 0c bd
       -0.07609575 0.06019263 -0.06869617 -0.034419857
0002c0 48 1f a0 3d c9 b6 91 be d3 ce b7 3d d8 8f 30 be
       0.078184664 -0.28459767 0.089749955 -0.17242372
0002d0 e4 11 7e 3d 03 3a c3 bd 23 1c 37 be 1d be 23 be
       0.06202878 -0.09532549 -0.17881827 -0.15990491
0002e0 fb fa 32 be 14 e0 d0 3c 1c bd dc 3d fd 7a f3 3c
       -0.17478554 0.025497474 0.10778257 0.029721731
0002f0 42 36 07 3d 09 ec f6 3d 4f 09 7b be c4 48 bb bc
       0.03301073 0.12056739 -0.2451527 -0.022861846
000300 e0 68 e6 bd c9 56 6d 3d a1 af 95 bd e3 ef ca bd
       -0.11250472 0.057944093 -0.07308889 -0.09909036
000310 98 3a c5 3d e9 e4 1d be 59 f2 62 be 8a 12 3f be
       0.096303165 -0.15419354 -0.22162761 -0.18659416
000320 4e 5e ca bb 65 6c b8 bd 07 94 bc bd 68 b5 a2 bd
       -0.006175793 -0.090050496 -0.092079215 -0.07944757
000330 2e 62 ab 3a 32 05 cb bd 6f aa 70 3d eb 70 90 3d
       0.0013075524 -0.099131 0.05875629 0.070527874
000340 ba 2e 6a 3d ed 96 3e bd 92 19 81 be e8 50 3b be
       0.05717347 -0.046530653 -0.2521482 -0.18292582
000350 2c b1 62 bd c6 6d 0d be 9d 41 64 bd 5e 00 f2 bd
       -0.055344746 -0.13811406 -0.055726636 -0.11816476
000360 ab 26 4b be 85 c9 3b bd d4 fa 87 bd 9b 44 18 be
       -0.1983897 -0.04584648 -0.066396385 -0.14869921
000370 82 3c 6d bd 05 60 45 be 6d f9 0d be 0e 06 fb bc
       -0.057919033 -0.1927491 -0.1386468 -0.030642536
000380 80 7e 41 be e9 19 9e bd 92 d4 05 be 68 2d b6 3b
       -0.18895912 -0.07719786 -0.1306937 0.005559612
000390 9e 17 96 ba 0e 30 51 be 6e 31 41 bd 3a 36 87 bd
       -0.001145113 -0.20428488 -0.04716628 -0.0660214
0003a0 57 4d 29 be a4 87 09 be b9 fb f8 ba fe 38 84 be
       -0.16533409 -0.13430649 -0.0018995918 -0.25824732
0003b0 c4 a5 45 be f0 aa 20 be 72 f6 18 be 82 a9 7b be
       -0.19301516 -0.15690207 -0.14937761 -0.24576381
0003c0 bf 52 04 b9 e3 43 00 3d 57 c6 2f be 20 f3 03 be
       -0.00012619326 0.03131474 -0.17165504 -0.12885714
0003d0 8f 50 f6 bd ee 07 d0 bd a8 60 72 bc bf bc 10 3e
       -0.12027084 -0.101577625 -0.014793552 0.14134501
0003e0 77 99 ec 3c 94 90 f3 bc 23 8f d0 bd 00 55 67 be
       0.028881771 -0.029732026 -0.10183551 -0.22591019
0003f0 2e 7e 13 be bd a8 d7 3c f1 c0 de bc 44 31 13 be
       -0.14403602 0.026325578 -0.027191611 -0.14374262

fc2.weight f4 [128, 256]
000000 e3 ce 3e bd bc 5e c1 3b 5a 90 09 3d 44 bb b9 bd
       -0.04658402 0.005901186 0.03358493 -0.09068921
000010 5e 09 c5 bb e3 d5 a0 bc 33 a3 b2 3d 06 f5 96 bb
       -0.0060130795 -0.01963324 0.08722534 -0.004606846
000020 df 19 52 bc 6f d1 2c 3d aa 5e 8c bc 64 cd 8a bd
       -0.012823551 0.04219192 -0.017134983 -0.067774564
000030 f9 29 f1 bd 2b 50 46 bd 4f 15 ac bd 0e ca 6b bd
       -0.11775584 -0.048416298 -0.08402502 -0.05756574
000040 97 9f c5 bd fb d6 cc 3c e7 8a eb bc a1 be 9d bd
       -0.0964958 0.025004854 -0.028752757 -0.07702375
000050 91 78 1d bd fd 48 61 bc a0 88 5e bd b9 55 1b be
       -0.03844506 -0.013750312 -0.054329515 -0.1516942
000060 b8 1d 07 bd ba 44 41 bc 9c 3f 87 bc e0 db c4 bd
       -0.032987326 -0.011796171 -0.016509824 -0.0961225
000070 c7 c0 c0 bc 3f eb a6 bd 97 3c 9c bd 2b fb 81 bc
       -0.023529423 -0.081503384 -0.07628744 -0.015866837
000080 28 3b 57 3d 0a 79 ac bd 23 ca fc 3a 12 da 61 3c
       0.05254665 -0.08421524 0.0019286316 0.013784902
000090 f5 a3 97 bd ff 0e 19 3d 47 66 06 bd 0d e9 a2 3c
       -0.07404319 0.037367817 -0.032812383 0.019886518
0000a0 c4 96 6a bd 28 bd ad bd 57 48 3b bd 5e 67 47 bd
       -0.057272688 -0.08483344 -0.045723286 -0.048682563
0000b0 99 53 11 bc 21 1d b8 3c a1 fd 79 3c e0 b7 62 3d
       -0.008870029 0.022474827 0.015258224 0.055351138
0000c0 6a 60 8e bd b2 3b 28 3d 1f 79 b3 bd 8e 61 8a bd
       -0.06951983 0.041072555 -0.087633364 -0.06756888
0000d0 7b 4c 60 3a 82 ce fd 3c 2e 8c 6f 3c 1e 35 8f bd
       0.00085563184 0.03098226 0.014620824 -0.06992553
0000e0 33 ac 9c bd cd 0d 76 bc e0 1d dd bd a5 24 7f 3d
       -0.07650032 -0.015017939 -0.10796714 0.062290806
0000f0 d0 8e 73 bd 20 43 4f bd bd be dc bb ae b0 85 bd
       -0.05946237 -0.050601125 -0.006736605 -0.065278396
000100 d2 c6 e8 bc 7c a9 d2 bc 3d 8b 41 bd 61 b2 8f 3d
       -0.028415117 -0.025715582 -0.04725193 0.07016445
000110 e6 e2 5d bd 88 d6 af bd c0 14 37 3d df 80 53 be
       -0.054171465 -0.085858405 0.044697523 -0.20654629
000120 e5 fc c4 bd 28 d5 65 3d 97 62 7d bc 30 b5 96 bc
       -0.09618548 0.056111485 -0.0154654 -0.018396944
000130 e8 ea 44 bd a5 01 60 3c 81 0e d5 3c 25 b0 1e 3d
       -0.048075587 0.013672267 0.026007893 0.038742203
000140 4e 83 02 3d 40 e0 56 bd 48 36 7f bc cb 25 88 bd
       0.031863503 -0.052459955 -0.0155769065 -0.066478334
000150 ab 12 b3 bd a6 82 3e 3d 64 88 ae bd dc 71 db bc
       -0.08743795 0.046511315 -0.08522108 -0.02678769
000160 9a e9 f3 bc e2 6d 1e bd 25 ba c1 bd e9 4f 54 bc
       -0.029774476 -0.03867901 -0.094593324 -0.012958505
000170 33 8f 05 be 18 ca 35 3d ac a8 b2 3d 55 a9 99 bd
       -0.13042907 0.044382185 0.08723578 -0.07503001
000180 a8 76 f0 bb 90 48 be bd 45 b3 b2 bc 93 42 65 bd
       -0.0073383637 -0.09291184 -0.021813998 -0.055971693
000190 58 8b 76 3d 8b 7f bb bd 93 f9 3d 3c 9a ea aa bd
       0.060191482 -0.09155186 0.011595148 -0.08345528
0001a0 5c e8 02 bd 33 77 9b bd 6a 58 83 bd a1 85 0e bc
       -0.031959876 -0.07591095 -0.06413348 -0.008698852
0001b0 49 cb c2 3d 9a 46 d0 bd 92 d3 43 3d f3 3f 5f 3d
       0.0951143 -0.10169716 0.04780919 0.054504346
0001c0 a9 5c b4 3d a5 eb 18 3d 1f 9d 4d bd 6d 3f 92 bd
       0.08806736 0.037334103 -0.05019867 -0.07141004
0001d0 00 25 26 3d 74 ee 5d 3d b3 c3 47 bc 8d 5a 33 3d
       0.04056263 0.054182485 -0.012192654 0.043787528
0001e0 d0 e8 66 bd be a5 84 bd 5c d6 6d bd fa d8 29 bd
       -0.05637437 -0.06476925 -0.058065757 -0.04146669
0001f0 ca e2 08 bd 73 74 e6 3c d4 ee d6 bc e2 18 59 bd
       -0.033419408 0.0281317 -0.026236929 -0.053002246
000200 08 2d c3 bd ac 17 c4 bb 11 cb 5b bc 26 97 4d bd
       -0.095300734 -0.005984267 -0.013415114 -0.050192975
000210 da 83 9f bd bf 22 e9 bd 55 4a 69 bd 3d 09 aa bc
       -0.077888206 -0.113835804 -0.056955654 -0.020756358
000220 8f 6f ac bc 32 ef 89 bd 26 ab 81 bd ea 60 9c 3b
       -0.021049289 -0.06735076 -0.06331472 0.0047722952
000230 fe d0 f7 bd a6 17 a1 bd b7 cb b9 bc 80 10 f4 bc
       -0.12100409 -0.07865839 -0.022680147 -0.029793024
000240 40 ee 82 bd 63 eb 07 3d 70 80 a6 3d 29 0b 86 3c
       -0.06393099 0.033183467 0.08129966 0.016362743
000250 da 58 b6 bd 95 6f 0b 3d 1a 98 18 be 14 28 bf bd
       -0.08903666 0.03404196 -0.14901772 -0.09333816
000260 f4 75 16 bd d1 a1 b9 bd 82 ec ce bd 3a a2 20 bd
       -0.036733583 -0.09064067 -0.10103704 -0.03921721
000270 ea 89 30 bc e4 ab e4 bc 78 db 9e 3d 8c 25 41 bc
       -0.010775069 -0.027913995 0.07756704 -0.011788737
000280 38 19 21 ba 01 d3 00 3d 56 09 a8 bd 24 6e 96 bd
       -0.00061454205 0.03145123 -0.08204906 -0.073452264
000290 0c b0 55 bd 61 82 e1 bd e4 20 b7 3c 21 fe 40 bc
       -0.052169845 -0.11011196 0.02235455 -0.011779339
0002a0 e3 a7 65 bd b4 37 85 bd d9 93 b5 bd 7c d3 86 3d
       -0.056068312 -0.06504765 -0.0886609 0.06583306
0002b0 6d 08 07 be 4f 9b a2 bd 7f 82 de 3c 86 3e 86 bd
       -0.13186808 -0.07939779 0.027161835 -0.06554894
0002c0 de b7 a0 bd a6 6a 24 3d f4 e0 d0 bc 37 22 1b bc
       -0.0784757 0.04014077 -0.025497891 -0.009468607
0002d0 70 63 4d 3c fd 4e 34 3d d8 57 ea bd 09 63 b0 bd
       0.012535915 0.04402064 -0.11442536 -0.086126395
0002e0 84 d5 64 bd 33 da c7 bd 49 9f 8e 3d 8d f9 cd 3a
       -0.055867687 -0.09758415 0.06963975 0.0015714631
0002f0 84 71 05 bd 49 42 2d bd 15 77 1f bd 44 2f 68 bd
       -0.03257896 -0.042299543 -0.038931925 -0.0566857
000300 04 af 04 be 15 49 24 bb 0a b0 3d bd 06 4d 1e 3d
       -0.12957388 -0.0025067974 -0.046310462 0.038647674
000310 70 af 52 bd 74 a2 5f bd 00 5a 37 bb d9 a1 30 bc
       -0.05143684 -0.054598287 -0.0027977228 -0.010780775
000320 98 44 d4 bd 77 da 38 bd 28 e9 d8 bc b3 5f b4 3c
       -0.10364646 -0.04513022 -0.026478365 0.02201829
000330 9a 25 c9 bd b1 d3 7a bd 51 4a a1 bd 5a d7 64 bd
       -0.09821625 -0.06123704 -0.07875503 -0.055869438
000340 dd fc b9 bb cd 88 16 be a2 0f 94 bd 77 a6 d8 bd
       -0.0056758956 -0.14700623 -0.07229544 -0.10578626
000350 ad c9 87 3d 48 00 0d bd 5c 4c 1f bd ab 0f a4 bc
       0.066302635 -0.034424096 -0.03889118 -0.020027002
000360 c8 00 2f 3c ac fa ca 3c b1 aa e1 bd 1c ec 6d bd
       0.010681339 0.024777733 -0.11018885 -0.0580865
000370 6f 0d 03 bd 31 e6 2a 3d be c4 75 bd 33 1b 8d bd
       -0.031995233 0.041723434 -0.06000208 -0.068899535
000380 10 b3 b4 bd 72 ed 7e bc 32 31 eb bc 2f f4 97 bc
       -0.08823216 -0.015559541 -0.028709982 -0.018549053
000390 33 da d4 bb d1 b4 56 bd 32 97 05 3d 40 f4 c7 3d
       -0.006495738 -0.052418534 0.032614894 0.09763384
0003a0 6b 0c 8a 3c 41 0c e8 bd 08 cf e3 bd 34 22 fd 3b
       0.016851624 -0.11330462 -0.111234725 0.0077250246
0003b0 04 9b 19 bd 1d 5e ab 3c 26 85 bf 3c cf 06 8c bd
       -0.03750135 0.0209189 0.02337892 -0.06837236
0003c0 39 b7 8e 3c e7 06 d3 bd 9c b1 ea bb f5 1a a4 bd
       0.017421352 -0.10304051 -0.007162286 -0.08012954
0003d0 52 f0 a2 3c 10 50 65 bd a4 b5 e4 3c ba dc c3 bd
       0.019889984 -0.055984557 0.027918644 -0.095635846
0003e0 8a b2 ad bd e7 88 0d be de 4c a6 bc 92 91 5f bd
       -0.08481319 -0.13821755 -0.020300325 -0.054582186
0003f0 aa f0 9c 3d aa f5 9f 3c 60 4e a4 bd 89 5b 99 bd
       0.076630905 0.019526321 -0.08022761 -0.07488162

fc2.bias f4 [128]
000000 af c7 e7 bd 0c c4 16 3e 3f 2f ce bd 5b d0 d5 3c
       -0.113173835 0.14723223 -0.10067605 0.026100328
000010 dd 27 6b bd 43 a8 31 3e 2d 77 49 3e cb 3d a7 bd
       -0.057411063 0.17349343 0.19674368 -0.08166083
000020 cd fd 70 3e b0 0a dd 3d f1 32 d4 bd ef 7d c5 bc
       0.23534317 0.10793054 -0.10361279 -0.024107901
000030 ac 63 a1 bd 4a 9d ff bc 5e 9d 9c 3e c6 7a a3 bd
       -0.07880339 -0.031202931 0.30588812 -0.079824015
000040 02 72 a8 bd 59 ee ba bd ea d5 b2 3c 82 ae c9 bd
       -0.0822487 -0.091274925 0.021830518 -0.09847738
000050 c6 a1 68 3c ba 7b 12 3e de d5 79 3e 8f 52 b0 bd
       0.014198726 0.1430501 0.2439799 -0.08609497
000060 6a 42 d9 bc 0e f7 72 3d 70 d7 94 bd 2b 1d 69 bd
       -0.026520927 0.05931764 -0.07267654 -0.056912582
000070 1e ce af bd 26 94 88 3d ac 4f 7b bd c6 5d 33 bd
       -0.085842356 0.06668882 -0.061355278 -0.0437906
000080 01 16 26 3d 6f d0 96 bd 66 6f b8 bc f8 0b ec 3c
       0.04054833 -0.07363974 -0.022514056 0.0288143
000090 1f 63 c7 bc 84 88 72 bd d8 9c 7e 3d e6 0a a8 3d
       -0.024339257 -0.059212223 0.062161297 0.08205204
0000a0 68 43 66 3c 37 32 43 3d c6 2d 3a 3e e5 8e 55 3e
       0.014054157 0.04765531 0.18181524 0.20855291
0000b0 61 48 b6 bd 68 59 ac bd 96 22 27 3d 48 a0 ca bd
       -0.08900524 -0.084154904 0.040804468 -0.098938525
0000c0 82 f2 8b bc 71 3c a5 3d 62 29 ba bd d9 c4 ba bc
       -0.01708341 0.08068169 -0.090899244 -0.022798942
0000d0 cc 76 ee bd 56 a1 8a 3d c1 ab d6 3d 81 8c 0b 3e
       -0.116437525 0.06769054 0.10481978 0.13627817
0000e0 2a c2 54 3d de 64 94 bd 6b 80 dd 3d a4 f7 16 3d
       0.05194298 -0.072458014 0.108155094 0.036857262
0000f0 b3 88 f3 3c b7 c6 a8 bd b2 17 50 3d ab 67 45 3e
       0.02972827 -0.08241027 0.050803848 0.19277827
000100 11 e4 62 bd 02 bb 92 bb 91 4f 11 3d df 72 b9 bd
       -0.055393282 -0.0044778595 0.03547627 -0.09055113
000110 52 4c 61 3e 49 88 b3 3d fe ee 1a 3e 58 f5 11 3e
       0.2200177 0.08766229 0.15130231 0.14253747
000120 66 20 51 3e 92 a3 ab 3d 83 67 8c bd c4 9e 50 3e
       0.20422515 0.08380808 -0.06855681 0.20373064
000130 fe 55 56 bd 31 5b 94 bd 36 26 11 3d 4e 67 30 3d
       -0.052328102 -0.07243956 0.03543683 0.04306727
000140 75 a2 e5 3d bc 2c 47 bc 3b f0 43 3e 77 6e ba bd
       0.11212627 -0.012156662 0.1913461 -0.09103101
000150 d4 7f 67 3e 17 04 07 bd eb f3 1c 3d c4 28 e4 3d
       0.22607356 -0.032962885 0.038318556 0.11140588
000160 36 bc bf 3c 78 64 fd 3d 24 4f 1e 3e 72 ee 8b 3e
       0.023405176 0.123726785 0.15459877 0.27330357
000170 63 9b 6f 3e d7 57 e4 bc 1f e0 9c 3c f6 de 21 3e
       0.23399119 -0.027873917 0.019149838 0.15807709
000180 18 e2 6c 3e 95 0f 21 3e 61 5b 66 3e b8 ce 57 3e
       0.23133123 0.157286 0.22495796 0.2107495
000190 35 98 9c bd ea be 27 3e e2 ba 61 bd 08 e0 e7 3d
       -0.07646219 0.16381422 -0.055109866 0.113220274
0001a0 69 1d 30 bd 07 0b 39 3e 18 95 6c 3e 3a 2f 78 3e
       -0.042996798 0.18070613 0.2310375 0.24236766
0001b0 33 83 b6 3d 40 23 68 bd 33 2d 19 3e b9 d6 14 3e
       0.08911743 -0.056674242 0.14958648 0.14535035
0001c0 ce c8 82 3d b1 92 3a 3d e9 de 0c 3e 3f 59 43 3e
       0.06385957 0.045550052 0.13756908 0.19077013
0001d0 f2 a3 df bd c5 39 04 3e f6 47 18 3e 9a 59 5e 3d
       -0.10919942 0.12912662 0.14871201 0.05428467
0001e0 f8 bc 0e 3e 92 a0 5e 3e 59 10 3e bd f9 4f 52 bd
       0.13939273 0.2174094 -0.04640231 -0.0513458
0001f0 65 62 83 3e e7 f8 3c 3e 7d 82 a2 bd ef 1f 88 3e
       0.25661007 0.18454324 -0.07935045 0.26586863

fc3.weight f4 [4, 128]
000000 d7 ab 8b bd e9 a4 ce bc 0a ac d8 3b 44 37 bd 3c
       -0.06819885 -0.02522512 0.0066123055 0.023097642
000010 66 bb 6c 3d a5 0e 5b 3d 6d 2d 45 3d d1 23 47 bd
       0.057795905 0.053480763 0.048139025 -0.04861814
000020 2b 8f 89 3d c0 40 dd bd 53 39 ae be 66 56 fd bd
       0.0671676 -0.10803366 -0.3402811 -0.12369995
000030 61 a2 18 bd c1 1e 98 3d a0 c5 32 3d 49 2b 4e 3d
       -0.03726423 0.07427741 0.0436455 0.05033425
000040 d8 64 9e 3c db bb cc bc 1a ed bf 3d 49 10 5f bd
       0.019335195 -0.02499192 0.093713954 -0.05445889
000050 c4 1c 30 3a 82 f4 21 be a2 52 8f 3d 45 d2 03 bd
       0.00067181536 -0.15815929 0.06998183 -0.03218295
000060 75 32 af 3d 03 c7 d2 3d 57 c7 7c 3d e3 43 05 bb
       0.08554546 0.10291865 0.061713543 -0.0020334653
000070 b1 6d 91 bd b8 8b e7 bd f6 1e 9a bc 93 d6 aa bd
       -0.07101 -0.11305946 -0.018813591 -0.08341708
000080 1c 25 85 bd 47 ea 7f bd a6 61 a8 3c 71 16 2e 3d
       -0.06501219 -0.062479284 0.020554375 0.04250187
000090 99 54 52 bd 0b bc 54 bb 8a df 05 be ed b9 b4 3d
       -0.05135021 -0.0032460715 -0.13073555 0.08824525
0000a0 6d 6a e7 3c 0f 21 1e 3c 20 5e 27 3d fa 87 58 3d
       0.02824899 0.0096514365 0.04086125 0.052864052
0000b0 ca 0a 85 bc 50 17 38 3d 27 a2 10 3d 1a ee 27 bd
       -0.016240496 0.044944108 0.03531089 -0.040998556
0000c0 04 46 be bc bf 68 21 bd 87 f3 86 3c 1c e6 d2 3d
       -0.023226745 -0.039406534 0.016473545 0.10297796
0000d0 9b 17 0d 3d a9 48 cc 3d 97 82 be bd 05 5b 50 3d
       0.03444634 0.09974796 -0.09302252 0.050868053
0000e0 9a 68 d8 3d a4 65 0f bc ff 14 5c 3d ab 37 51 bd
       0.10566826 -0.00875226 0.05373096 -0.05107848
0000f0 c9 30 d9 3c fa 04 fe bc 30 d7 68 bd af d4 a5 3d
       0.02651252 -0.031008232 -0.056845844 0.08097207
000100 10 86 07 3b 70 40 8c 3c a0 8d 4d be 92 ed 1a 3d
       0.0020679273 0.01712057 -0.20073557 0.03782422
000110 b1 b2 24 3d 2c 70 c5 bb ef 4d f4 bd 19 57 f6 bd
       0.040209476 -0.006025335 -0.11928927 -0.12028331
000120 ea f5 1e 3d a2 a5 9b 3c b4 16 5f bd d7 9c 3d be
       0.03880874 0.018999878 -0.05446501 -0.18516861
000130 f3 e8 b3 3c 25 ea 22 bd ca 89 8c be a1 03 14 be
       0.021961665 -0.03977408 -0.27448875 -0.1445451
000140 99 7e 3a 3d 50 30 c3 bd ed fa 0d be e4 ef f5 bc
       0.04553089 -0.09530699 -0.13865252 -0.030021615
000150 98 d3 15 3d 7d 77 19 3d ce 06 1a bd a2 92 2d 3d
       0.036578745 0.03746747 -0.037604146 0.042376168
000160 45 25 54 3c 44 5a 2c 3d b6 1f 1e 3d f5 15 63 3d
       0.012948339 0.04207827 0.03860446 0.05544086
000170 a6 83 6d 3d 22 26 b6 bd fd d4 0f bc b4 63 62 3d
       0.057986878 -0.08893992 -0.008778808 0.055270866
000180 d4 5e 7a 3d c2 da 03 3d 65 12 49 bd a9 a0 32 3d
       0.06112559 0.032191046 -0.049089808 0.04361025
000190 14 e1 2c 3e b1 56 09 3d 1e 5f e6 bd 65 f0 59 bd
       0.16882735 0.03352994 -0.11248611 -0.053207774
0001a0 1b 94 83 3c 8c bb 5c 3d e9 e9 8f 3d 8b 1f 20 3d
       0.016061833 0.053889796 0.07027037 0.03909258
0001b0 79 dd 5c 3d 9e 09 85 bc 44 dc 83 3d 89 2c aa 3d
       0.05392215 -0.016239937 0.06438497 0.08309276
0001c0 9a 3d ce 3d f9 f1 9c bd d0 a0 75 3d ab 35 82 3d
       0.10070343 -0.0766334 0.059967816 0.063578926
0001d0 0b 97 21 3c b5 14 34 3d b2 f5 2c 3d 76 90 6d bd
       0.009862672 0.04396506 0.0422265 -0.057999097
0001e0 40 54 96 3d 22 07 69 3d a0 e6 47 bb 83 fb 6b bd
       0.07340288 0.056891568 -0.0030502453 -0.057612907
0001f0 66 d9 89 3d 92 da 1b be d4 9e 23 bd 2e 80 e7 bd
       0.067309186 -0.15220097 -0.039946392 -0.11303745
000200 61 fa d2 3c d7 5c 74 3c 3b 62 8f 3b 20 23 a1 3d
       0.025754156 0.014914713 0.0043757237 0.07868028
000210 66 e5 8e be 7a 5d 8a 3d fa 93 78 3d b5 1e 35 3d
       -0.27909392 0.067561105 0.060687996 0.044218738
000220 d5 06 a0 3d cf e6 25 ba 74 69 c9 bd cd 68 20 be
       0.07813803 -0.00063286436 -0.09834567 -0.15664978
000230 83 2c e2 bc 62 c9 59 3d c7 47 68 3d 2f 3a e7 3c
       -0.027609115 0.05317057 0.056709077 0.028225986
000240 cb d2 7a 3d e8 4e 24 3e e1 01 d5 3d 34 f6 e3 bc
       0.061236184 0.16045725 0.10400749 -0.02782736
000250 a7 46 94 be 10 46 01 3b 39 e8 9e 3d 0c 59 82 bd
       -0.28960153 0.0019725598 0.07759137 -0.063646406
000260 1f ae 5e be 87 c5 51 3d b1 9a cd 3c 7f e1 37 3c
       -0.2174611 0.051213767 0.025098177 0.011223196
000270 a5 82 9b 3c 88 2e bb bb 21 2d 0b 3d 61 19 e3 3b
       0.018983195 -0.005712334 0.033978585 0.0069305156
000280 68 34 c3 3c 51 11 8f bd 1f 0f 2e 3d 5c 91 da 3d
       0.0238287 -0.06985725 0.04249489 0.10672256
000290 e0 69 02 be da f3 21 bc 1f 8f e8 bb 2d bf 9b 3d
       -0.127357 -0.009884799 -0.0070971395 0.07604823
0002a0 60 45 ef 3d bd 2f 17 3e 18 0c 39 3d 49 9d 1a 3d
       0.11683154 0.14764304 0.04517755 0.037747655
0002b0 59 1e 1d bc f3 86 d0 38 cc d0 7c 3d 8b f2 13 3d
       -0.009589755 9.943349e-05 0.06172256 0.03611998
0002c0 06 7e 19 3e c9 16 ce bb 9b 52 2e bc 64 7e 4b be
       0.1498948 -0.0062893373 -0.010639812 -0.19872433
0002d0 5e c4 14 3d a8 09 35 bc f1 7f 26 bd 79 a6 29 3d
       0.036320083 -0.0110496655 -0.04064936 0.041418526
0002e0 69 b3 1d 3e ee 9c f5 3d e9 c8 10 3d 74 97 8d be
       0.15400471 0.119928226 0.035347853 -0.27654612
0002f0 e7 16 39 3d 13 93 2a 3d 95 99 48 3d 22 83 a3 3d
       0.045187857 0.041644167 0.048974592 0.07983996
000300 7c e6 c9 bc 5e 01 09 3c 00 82 5d bd a5 24 0c 3d
       -0.024646036 0.008362142 -0.054079056 0.034214634
000310 e2 e1 3f 3d 04 5b aa bc 43 f8 f7 bc 3a 95 a3 3c
       0.046846278 -0.020795353 -0.030269748 0.019968618
000320 d6 43 2d 3d 27 27 c8 3d b1 84 87 be 71 96 12 bd
       0.04230102 0.09773093 -0.26468423 -0.035788003
000330 54 85 2c 3d c5 19 16 bd f7 12 e5 3c 2a 15 a5 bd
       0.04211934 -0.03664567 0.027963145 -0.08060677
000340 5d b5 82 3c 28 f4 20 bd 70 ec a3 bd 5b 2d 9b 3d
       0.015955621 -0.039295346 -0.08004081 0.0757701
000350 c7 87 70 3d e2 a7 4a 3d 41 e3 58 be d2 9a 0a 3d
       0.058723237 0.04947651 -0.2118044 0.033839054
000360 ec c8 90 be d1 27 3d 3d 39 f6 50 3d c2 59 7a 3d
       -0.2827829 0.04618055 0.051016066 0.061120756
000370 20 83 85 3d 73 d4 37 ba f1 49 08 bd 34 42 98 3d
       0.06519151 -0.00070125534 -0.03327364 0.07434502
000380 68 56 bd 3d a4 3b 4d 3d 8f d7 44 bd e2 5a f7 3c
       0.09244996 0.050105706 -0.048057135 0.030194703
000390 94 42 04 3d 9d cb 3c 3d e2 fc 38 3e b0 6d 91 be
       0.032290056 0.04609262 0.18065217 -0.28403997
0003a0 98 4b 47 bd ce be 0d 3d 2a 6d 8d 3d 67 6a c5 3c
       -0.048656076 0.034605794 0.06905587 0.024098588
0003b0 a9 a7 d1 3d c8 16 a7 3d 07 de b6 3d bb 90 bb 3d
       0.10237057 0.08158642 0.08929067 0.091584645
0003c0 aa 64 5f 3e d5 d4 93 3d 51 4d 87 3d 1f 54 38 3d
       0.21815744 0.07218329 0.06606544 0.0450021
0003d0 b5 3c 03 3d aa 2f 04 3d 0b 7f 75 3d 64 d4 6f bc
       0.032040317 0.03227202 0.05993561 -0.01463804
0003e0 1a b8 97 3d 1d 9b 12 3d 25 66 35 bd 09 d9 15 bc
       0.074081615 0.03579246 -0.044286866 -0.0091459835
0003f0 98 00 a2 3d a3 b9 ea bd 75 e6 34 bd 6f 0c 08 be
       0.079102695 -0.11461189 -0.044165093 -0.13285993

fc3.bias f4 [4]
000000 9e 55 4e 3f 79 69 1f 3f 03 8d 29 3f d9 77 28 3f
       0.8059939 0.62270314 0.6623079 0.65807873
