p3_collab-compet/checkpoint_critic.pth (torch_old, 186364 bytes, 5 tensors)

fcs1.weight f4 [256, 50]
0	0x3c7cf967	0.0154403215
1	0x3bae6e62	0.0053232173
2	0xbb12faa8	-0.0022427235
3	0xbc907cd6	-0.017637651
4	0x3d38c66b	0.0451111
5	0xb9b62347	-0.0003474003
6	0xbb81ec8c	-0.003964966
7	0xbc907cd6	-0.017637651
8	0x3c00ffd1	0.007873491
9	0xba701cbe	-0.00091595564
10	0x3ab9fa44	0.0014188965
11	0xbc911c3e	-0.017713662
12	0x3b9c6da3	0.004773812
13	0xbcb0f648	-0.021601811
14	0x3a9633ef	0.0011459569
15	0xbc911c3c	-0.017713659
16	0xba8d18f1	-0.0010764879
17	0x39ef0f9a	0.00045597256
18	0xbb2a1034	-0.00259496
19	0x3dd5f37e	0.10446833
20	0xbcf6abd6	-0.030111235
21	0xbd12a2f5	-0.03579994
22	0xba22406b	-0.00061894086
23	0x3dd5f37e	0.10446833
24	0xbbde76b9	-0.006789055
25	0x3d3febfa	0.046855904
26	0x3bf8acaf	0.007588945
27	0x3d2fc14f	0.042908963
28	0xbd38c7d9	-0.045112465
29	0xb9b6313c	-0.00034750428
30	0x3b4d4f14	0.0031327652
31	0x3d2fc14f	0.042908963
32	0xbc0436a3	-0.008069667
33	0x3d4d6ed2	0.050154515
34	0x3b211964	0.0024581784
35	0xbcfeba91	-0.031094821
36	0xbb9c4817	-0.004769336
37	0xbcb0f690	-0.021601945
38	0x3a1e40a5	0.00060368545
39	0xbcfeba91	-0.031094821
40	0xbcb246f3	-0.021762347
41	0x3d314adb	0.04328428
42	0x388083b3	6.1280465e-05
43	0xbdbe3976	-0.092883036
44	0x3cf61637	0.03003989
45	0xbd12a2e0	-0.03579986
46	0x3816f238	3.598837e-05
47	0xbdbe3976	-0.092883036
48	0x3c8cd77c	0.017192595
49	0xbc83154a	-0.016001362
50	0x3d2d7d93	0.042356085
51	0x3b509ce8	0.0031831805
52	0xbbb9962a	-0.005663653
53	0x3b82d843	0.0039930656
54	0x39a44f91	0.000313398
55	0xbceca425	-0.028886864
56	0xbbb9962a	-0.005663653
57	0x3b82d843	0.0039930656
58	0x3d437517	0.047719087
59	0x3b79b87d	0.0038104348
60	0x3b1083be	0.002205118
61	0xbaa5483b	-0.0012610027
62	0xb84b95d2	-4.8538503e-05
63	0xbce06d79	-0.02739595
64	0x3b1083be	0.002205118
65	0xbaa5483b	-0.0012610027
66	0x3d640e3f	0.05567765
67	0x3ba8ad23	0.0051475926
68	0xbbb57af3	-0.0055383383
69	0x3b595554	0.0033162432
70	0xbaff73f2	-0.001948951
71	0xbcd04089	-0.025421398
72	0xbbb57aef	-0.0055383365
73	0x3b595554	0.0033162432
74	0x3d28dc9e	0.041226022
75	0x3b0cda2e	0.002149235
76	0xb9895d67	-0.00026200266
77	0x3c9694ed	0.01838156
78	0xb9a44f91	-0.000313398
79	0xbceca425	-0.028886864
80	0xb9895d74	-0.00026200304
81	0x3c9694ed	0.01838156
82	0x3d31b8a3	0.043388974
83	0x3aafd9c6	0.0013416342
84	0xbadc182d	-0.0016791873
85	0x3bfa7bec	0.007644167
86	0x384b95d2	4.8538503e-05
87	0xbce06d79	-0.02739595
88	0xbadc183b	-0.0016791889
89	0x3bfa7bec	0.007644167
90	0x3d46fd6a	0.04858152
91	0x3a60ce28	0.00085756416
92	0xbbfaacbe	-0.007649987
93	0x3c33710a	0.010952244
94	0x3aff73f2	0.001948951
95	0xbcd04089	-0.025421398
96	0xbbfaacc2	-0.007649989
97	0x3c33710a	0.010952244
98	0xbb14923d	-0.0022670173
99	0x3af239bc	0.0018480341
100	0x3b6f6945	0.0036531251
101	0xb93910c8	-0.00017649226
102	0xbacba9da	-0.0015538291
103	0x39b08227	0.00033666307
104	0x3a0fd3da	0.00054865854
105	0xbaa93fbf	-0.0012912675
106	0xbacba9da	-0.0015538291
107	0x39b08227	0.00033666307
108	0x3ba33049	0.0049801213
109	0xb933d18e	-0.00017148835
110	0x38c87f27	9.560427e-05
111	0xb78b3f92	-1.6599693e-05
112	0x3a779572	0.00094445713
113	0xba79746d	-0.0009515945
114	0x38c87f27	9.560427e-05
115	0xb78b3f92	-1.6599693e-05
116	0x3bdb45bd	0.006691663
117	0xb920c259	-0.00015331189
118	0xb9fc26b1	-0.00048094013
119	0xb97f0162	-0.0002431921
120	0x3aa3c8b2	0.0012495725
121	0xba51ee0a	-0.0008008188
122	0xb9fc26b1	-0.00048094013
123	0xb97f0162	-0.0002431921
124	0x3bbc7b49	0.0057520014
125	0xb80514a6	-3.17289e-05
126	0xb9534277	-0.00020147288
127	0xb99b80a4	-0.00029659749
128	0xba0fd3da	-0.00054865854
129	0xbaa93fbf	-0.0012912675
130	0xb9534277	-0.00020147288
131	0xb99b80a4	-0.00029659749
132	0x3ba53429	0.0050416184
133	0xb8a73fc1	-7.9750556e-05
134	0xb9f59286	-0.0004683921
135	0x399842a9	0.00029041365
136	0xba779572	-0.00094445713
137	0xba79746b	-0.0009515944
138	0xb9f59286	-0.0004683921
139	0x399842a9	0.00029041365
140	0x3bbb4b48	0.0057157613
141	0xb90efc39	-0.00013636136
142	0x391ec23a	0.00015140409
143	0xb8ddaa5a	-0.00010569832
144	0xbaa3c8b2	-0.0012495725
145	0xba51ee0a	-0.0008008188
146	0x391ec23a	0.00015140409
147	0xb8ddaa5a	-0.00010569832
148	0x392e5e87	0.00016629147
149	0xb8a93f28	-8.070312e-05
150	0x3b2e1202	0.0026561026
151	0x3a5629e0	0.0008169692
152	0x39b9b7dd	0.00035422939
153	0x3a1d00d1	0.00059891964
154	0x3a736718	0.00092850765
155	0xbad5c3c7	-0.0016308957
156	0x39b9b7e9	0.00035422973
157	0x3a1d00d1	0.00059891964
158	0x3b4e6793	0.003149484
159	0x3a794556	0.0009508928
160	0x39a2ba57	0.00031037882
161	0x397438e9	0.00023290854
162	0x3a448a21	0.00074973895
163	0xbac2ca1e	-0.0014861261
164	0x39a2ba57	0.00031037882
165	0x397438e9	0.00023290854
166	0x3b7e44f4	0.0038798423
167	0x3a4725c5	0.00075968757
168	0x39d372f1	0.00040330694
169	0xbabf333c	-0.0014587413
170	0x3a197832	0.00058543973
171	0xbaa1f27c	-0.0012355591
172	0x39d372f1	0.00040330694
173	0xbabf333c	-0.0014587413
174	0x3b1ead18	0.0024212059
175	0x39c11359	0.00036826244
176	0xb9506c00	-0.00019876659
177	0x3a920d92	0.001114296
178	0xba736718	-0.00092850765
179	0xbad5c3c7	-0.0016308957
180	0xb9506c00	-0.00019876659
181	0x3a920d92	0.001114296
182	0x3b37913d	0.0028010153
183	0x3a0aaea5	0.0005290306
184	0xb925fd56	-0.00015830001
185	0x3a399c92	0.0007080521
186	0xba448a21	-0.00074973895
187	0xbac2ca1e	-0.0014861261
188	0xb925fd56	-0.00015830001
189	0x3a399c92	0.0007080521
190	0x3b625b6a	0.003453935
191	0x3a11409f	0.00055409403
192	0x3904ddda	0.00012671147
193	0x3a540588	0.00080879824
194	0xba197832	-0.00058543973
195	0xbaa1f27c	-0.0012355591
196	0x3904ddda	0.00012671147
197	0x3a540588	0.00080879824
198	0xb92d03e5	-0.00016500016
199	0x396d2b7c	0.0002261828
200	0x3cd4ec50	0.025991589
201	0xbb64008b	-0.0034790363
202	0xbba2fb9b	-0.0049738414
203	0x39d985c2	0.00041489123
204	0x3bbe8283	0.005813898
205	0xbb8b88be	-0.0042582443
206	0xbba2fb9b	-0.0049738414
207	0x39d985c2	0.00041489123
208	0x3ce517f2	0.02796552
209	0xbb912554	-0.0044294987
210	0x37905a60	1.7208222e-05
211	0xbad3beff	-0.0016154944
212	0x3bab51a0	0.0052282363
213	0xbb4ddf01	-0.0031413438
214	0x37905a60	1.7208222e-05
215	0xbad3beff	-0.0016154944
216	0x3ceef4e7	0.029169513
217	0xbbaf4fcb	-0.0053500882
218	0xba49a3a9	-0.0007691929
219	0xb9d9ce8e	-0.0004154336
220	0x3bc76f9b	0.0060863025
221	0xbb3c3398	-0.0028717276
222	0xba49a3a9	-0.0007691929
223	0xb9d9ce8e	-0.0004154336
224	0x3cfd3270	0.03090784
225	0xba83cd76	-0.0010055739
226	0x3b2b27ee	0.002611633
227	0x3c0c42da	0.0085608605
228	0xbbbe8283	-0.005813898
229	0xbb8b88be	-0.0042582443
230	0x3b2b27ee	0.002611633
231	0x3c0c42da	0.0085608605
232	0x3d0e8361	0.03479326
233	0xb8bb4534	-8.929745e-05
234	0x3b3316bf	0.002732679
235	0x3c2fa03b	0.010719354
236	0xbbab51a0	-0.0052282363
237	0xbb4ddf01	-0.0031413438
238	0x3b3316bf	0.002732679
239	0x3c2fa03b	0.010719354
240	0x3d12e27f	0.035860535
241	0x39aadcfa	0.00032589567
242	0xbab818b4	-0.0014045448
243	0x3bab5179	0.005228218
244	0xbbc76f9b	-0.0060863025
245	0xbb3c3398	-0.0028717276
246	0xbab818b4	-0.0014045448
247	0x3bab5179	0.005228218
248	0x3931b4ec	0.00016947434
249	0x3b03114b	0.001999932
250	0x3d4a9154	0.049455002
251	0x3c1aff52	0.009460287
252	0x3c953591	0.018214019
253	0xbc8ffcc7	-0.017576588
254	0x3c554d1b	0.013018872
255	0x3b085cd5	0.0020807285

fcs1.bias f4 [256]
0	0x3b614f3d	0.0034379505
1	0xbc0a5923	-0.008444103
2	0x38784145	5.9188595e-05
3	0xba673e3f	-0.0008821226
4	0xbaad211a	-0.0013208718
5	0xbbde2ea4	-0.0067804623
6	0x39a7d9a9	0.00032014892
7	0x3d6266a5	0.05527367
8	0x39f58544	0.00046829332
9	0xbc0b4a05	-0.008501534
10	0xbccb0133	-0.024780845
11	0xbb2cf80b	-0.0026392962
12	0xbb9302a0	-0.004486397
13	0xbc4cb42c	-0.012494128
14	0xbc988dc9	-0.018622296
15	0xbb9d6996	-0.0048038466
16	0xb98e4b4e	-0.00027140457
17	0x3a822894	0.0009930306
18	0xbb008536	-0.001961065
19	0x3986e64b	0.00025730053
20	0xb8c8f4d2	-9.5823445e-05
21	0xba8b9edd	-0.0010652203
22	0xb99ab761	-0.00029509797
23	0x3ba8fe07	0.0051572355
24	0xbc12e87b	-0.0089665605
25	0xbc6767e8	-0.014123894
26	0x38408740	4.590233e-05
27	0xbb9dcfe5	-0.0048160427
28	0xbb6faae4	-0.0036570365
29	0xbbb56540	-0.0055357516
30	0xbcd08065	-0.025451848
31	0xba0b8704	-0.0005322548
32	0xbc1c6794	-0.009546179
33	0xb8ed53e4	-0.000113166665
34	0xb7b40ec6	-2.1464552e-05
35	0x37965f42	1.7925751e-05
36	0x398acd4c	0.0002647437
37	0xbae2362f	-0.001725858
38	0xba48eb7a	-0.0007664483
39	0xb9cc7381	-0.0003899597
40	0xbad4c259	-0.0016232237
41	0xbd25f203	-0.040514003
42	0xb9a41112	-0.00031293236
43	0xbba4cb61	-0.0050291275
44	0xbb4d42ca	-0.0031320327
45	0x390dfb19	0.00013540349
46	0xb8e5fef0	-0.00010967057
47	0x37dde041	2.644968e-05
48	0xbbe22f8b	-0.00690264
49	0x37a52e5a	1.9691117e-05
50	0xbcbe28b9	-0.023212777
51	0xbb311b56	-0.002702435
52	0xbbcec64a	-0.006310259
53	0xbc2a12e5	-0.010380481
54	0xb8da4cbc	-0.00010409343
55	0xb96eb77a	-0.00022765799
56	0xba0ebb9f	-0.0005444828
57	0xba957d5c	-0.0011405158
58	0xbbbba736	-0.00572672
59	0xba6b9828	-0.00089872116
60	0xbcadb162	-0.021202747
61	0xbc364059	-0.01112374
62	0xb92a6380	-0.0001624953
63	0xbbcbc3b5	-0.0062183985
64	0xbac93876	-0.001535191
65	0xba74781b	-0.00093257584
66	0x38ba942c	8.89677e-05
67	0xbc042d0b	-0.00806738
68	0x3b4cb8c7	0.0031238066
69	0xbaa850d5	-0.0012841473
70	0x39a54918	0.00031525712
71	0x3cd4bdab	0.025969347
72	0xbc098816	-0.008394262
73	0xbc44a16b	-0.012001376
74	0xba53328f	-0.0008056545
75	0xbb10781a	-0.0022044242
76	0xbc4ca4ca	-0.012490461
77	0xbb695784	-0.0035605142
78	0xbbc7716e	-0.00608652
79	0xbca82808	-0.0205269
80	0xbc00209e	-0.007820277
81	0x391aa9d2	0.00014749847
82	0x387e0d56	6.057074e-05
83	0xbaa29b6d	-0.001240594
84	0xb99bbf99	-0.00029706655
85	0x3d7b4444	0.0613444
86	0xb9b4de9b	-0.0003449813
87	0xbb8e2b4d	-0.004338658
88	0xba1bb99b	-0.0005940438
89	0xbc0d96ec	-0.00864194
90	0xbb3a941d	-0.002846963
91	0xbc9c1cd4	-0.019056715
92	0x39943689	0.00028269392
93	0xbc42ef94	-0.01189794
94	0xb9158060	-0.00014257571
95	0xbab81833	-0.0014045298
96	0xbcbbe18a	-0.022934694
97	0xbac2f5d7	-0.0014874291
98	0xbade59eb	-0.0016964054
99	0xbb73c50b	-0.0037196304
100	0x3853fb98	5.0540635e-05
101	0xbbca2fb1	-0.006170236
102	0xbc1aa449	-0.009438583
103	0xbb05246f	-0.0020315906
104	0xb8025382	-3.1072188e-05
105	0xb8358ca9	-4.3284763e-05
106	0xbca1ea21	-0.019764962
107	0xb8855e8f	-6.359547e-05
108	0x39fb07d7	0.00047880292
109	0xbbf91d18	-0.007602345
110	0xb95d0682	-0.00021078627
111	0xbbd67753	-0.0065449863
112	0xbce489e1	-0.027897777
113	0x3a0bb70a	0.0005329704
114	0xbbe0d13a	-0.0068608792
115	0xb9a7d4e3	-0.00032011335
116	0xbd1c24a5	-0.038120884
117	0x384e47cf	4.9181104e-05
118	0x37aa1ab9	2.0278023e-05
119	0xbc2b77b4	-0.010465551
120	0xbb8e6ec5	-0.004346701
121	0xb9d99fd7	-0.00041508555
122	0xb9a909aa	-0.00032241392
123	0xba0ac428	-0.0005293512
124	0x393a04b7	0.00017740099
125	0xbbc943b6	-0.006142105
126	0x3912ca7b	0.00013999075
127	0xbbe9e3e3	-0.007137762
128	0xbb9d151b	-0.0047937757
129	0x3992406f	0.00027895297
130	0x37dc1458	2.6235517e-05
131	0x3b806ecd	0.0039194585
132	0xbb13584b	-0.0022483047
133	0xb974d876	-0.00023350291
134	0xbb7259e0	-0.003697984
135	0xbc1924ec	-0.009347182
136	0xbb0e920e	-0.0021754536
137	0xba9c53e4	-0.0011926857
138	0xbba6e802	-0.0050935755
139	0xbb89ad9d	-0.0042016045
140	0xbb01e263	-0.0019818775
141	0xbc1144f4	-0.008866537
142	0x3966b398	0.00022001413
143	0xba34d442	-0.0006898084
144	0x39e47f80	0.00043582544
145	0x3978b270	0.00023717596
146	0xba26f4ba	-0.00063688646
147	0x38bc1c5a	8.9698195e-05
148	0x3c472633	0.0121551035
149	0xba0a180a	-0.00052678643
150	0xbb461621	-0.0030225592
151	0x3a057239	0.0005090568
152	0xb99dd1aa	-0.00030101585
153	0xba1e89c6	-0.00060477515
154	0xbb68d598	-0.0035527702
155	0x3890c8ac	6.903833e-05
156	0xbbb823b8	-0.0056194924
157	0xbc910f71	-0.017707558
158	0xba2790cf	-0.00063921226
159	0xbbd6b92f	-0.0065528373
160	0xbb1751f3	-0.0023089617
161	0xb7873a10	-1.6120292e-05
162	0xba97c9ad	-0.001158049
163	0x3a02b69e	0.00049863185
164	0xbc155106	-0.009113556
165	0xb90ead17	-0.00013606656
166	0x39315a6c	0.0001691372
167	0x370fa5f4	8.562103e-06
168	0xbb3d5aa8	-0.0028893147
169	0x3c281080	0.01025784
170	0xba10db64	-0.0005525856
171	0xbc377462	-0.011197181
172	0xbd1f82c2	-0.03894306
173	0xbcb22cac	-0.021749817
174	0xbba6002e	-0.0050659394
175	0xbabafa9e	-0.0014265364
176	0x3838b794	4.403999e-05
177	0xb85c1dae	-5.247973e-05
178	0x388a39c0	6.5911096e-05
179	0xb9adcd27	-0.00033149982
180	0x3b78741c	0.0037911003
181	0xbb1a87b6	-0.0023579425
182	0xbb7466b6	-0.0037292666
183	0xb677e0d0	-3.6936726e-06
184	0xbb691455	-0.0035565097
185	0xbbabc34b	-0.0052417866
186	0xba8ae63d	-0.0010597181
187	0x3a5d8aaf	0.00084511464
188	0xb8eb6857	-0.00011225108
189	0xbc871ce9	-0.016493278
190	0xbb42431b	-0.0029642049
191	0xbbf0b7d6	-0.0073461337
192	0x38b1eac1	8.483744e-05
193	0x38f9b907	0.00011907709
194	0x39912349	0.00027682845
195	0xbca6b942	-0.02035201
196	0xb94ac275	-0.00019336662
197	0xba67a7d1	-0.0008836957
198	0xbbc8c39f	-0.0061268355
199	0x3af78336	0.0018883708
200	0xbbf31bb5	-0.0074190744
201	0xbd04a376	-0.03238245
202	0xb971ddea	-0.0002306622
203	0x3a94f4be	0.0011364443
204	0xba24fd44	-0.0006293843
205	0x35f02580	1.7892307e-06
206	0x39aa11d8	0.0003243822
207	0xbb0c5808	-0.0021414775
208	0xbc206173	-0.009788859
209	0xbbec1e99	-0.007205796
210	0xbb52e689	-0.0032180867
211	0xba8274be	-0.0009953005
212	0xbb2267e6	-0.0024781167
213	0xba1e57db	-0.0006040313
214	0x388a3581	6.590319e-05
215	0x3a0bc7b0	0.0005332185
216	0x3bb19e42	0.005420477
217	0xbb9e9406	-0.004839423
218	0x391bc9c9	0.00014857123
219	0xbb7b683e	-0.0038361694
220	0xb9e94388	-0.00044491538
221	0xbcdd217f	-0.026993511
222	0x39f9f3cc	0.00047674624
223	0x3653b978	3.1549407e-06
224	0xba52db5e	-0.00080435525
225	0xbafcbf8b	-0.0019283158
226	0xbb49fe91	-0.00308219
227	0xba36399c	-0.00069513335
228	0xba555f50	-0.0008139508
229	0xba4ad68a	-0.0007737657
230	0xbba44e7d	-0.0050142393
231	0xb767578c	-1.37890565e-05
232	0xbc0b3124	-0.008495603
233	0xbb96bf70	-0.004600458
234	0xbb4838fd	-0.0030551546
235	0xbc2d7946	-0.010587996
236	0xbc6317fd	-0.0138607
237	0x3a666568	0.00087889144
238	0xbb4da174	-0.003137675
239	0xbaa469ac	-0.00125437
240	0xb87b45b3	-5.9907976e-05
241	0x38c8c2d1	9.5730305e-05
242	0xbc35b74a	-0.011091063
243	0x3969d8e7	0.00022301414
244	0xb914e74d	-0.00014200546
245	0x3aaac5b6	0.0013028893
246	0xba1a9bd3	-0.00058978534
247	0xbbf9489c	-0.0076075327
248	0xbb17aa69	-0.0023142344
249	0x3d070a41	0.032968763
250	0xbb91035e	-0.00442545
251	0xbb83e08d	-0.0040245713
252	0xbc1865c0	-0.009301603
253	0xbb4898c3	-0.0030608631
254	0xbbb10348	-0.0054020025
255	0xba32c602	-0.00068196666

fc2.weight f4 [128, 258]
0	0xba1b4cf4	-0.00059242477
1	0xb7864628	-1.6006714e-05
2	0x341ce181	1.461067e-07
3	0x3778f95d	1.4840011e-05
4	0x390bb79c	0.00013324473
5	0x38f3ff26	0.00011634668
6	0x36b33e22	5.341849e-06
7	0xba23c35a	-0.0006247066
8	0xb5bbc20a	-1.3989059e-06
9	0x398e9acb	0.0002719968
10	0xba172b9b	-0.00057666906
11	0x389b0aa2	7.3929565e-05
12	0x37a4fbfb	1.9667661e-05
13	0xb82a31c9	-4.0577524e-05
14	0x38b4ebce	8.626991e-05
15	0x3885e656	6.3848376e-05
16	0x3823e036	3.907104e-05
17	0xb6b5032e	-5.3945905e-06
18	0x368cf86e	4.201246e-06
19	0xb5241ad6	-6.113381e-07
20	0x36c23d66	5.7887983e-06
21	0x384fd598	4.955157e-05
22	0xb5393a58	-6.900277e-07
23	0xb9422064	-0.00018513348
24	0x371d7e53	9.387341e-06
25	0x3703e0ae	7.860521e-06
26	0x33690678	5.4255423e-08
27	0xb6ed3188	-7.0689166e-06
28	0x37d3483c	2.5186797e-05
29	0x38a7ccc0	8.001318e-05
30	0x37301c82	1.0497055e-05
31	0x376e8ff5	1.4219423e-05
32	0x3880c21c	6.139671e-05
33	0x37573346	1.2826937e-05
34	0x3526e728	6.2176196e-07
35	0x3635aa48	2.7070218e-06
36	0x368be417	4.169076e-06
37	0x37292ef1	1.0084114e-05
38	0x3706353f	7.99942e-06
39	0xb5f93dae	-1.8569897e-06
40	0x382ee623	4.1699164e-05
41	0x37b9bd25	2.2141796e-05
42	0xb4d45324	-3.954857e-07
43	0x3652f40c	3.1434492e-06
44	0xb7808513	-1.5320757e-05
45	0xb5a1d3ee	-1.2057114e-06
46	0xb7d3f055	-2.5265073e-05
47	0x34991a7c	2.851774e-07
48	0x372db3bc	1.0353451e-05
49	0x34a80d8a	3.130229e-07
50	0x385a3716	5.2026553e-05
51	0x37b88c42	2.1999822e-05
52	0xb8a52cf5	-7.876187e-05
53	0x38ccd942	9.7679454e-05
54	0x35073d16	5.038031e-07
55	0x34eef2a4	4.45075e-07
56	0x38390bfc	4.41186e-05
57	0xb740cf49	-1.1492354e-05
58	0x389cd124	7.477615e-05
59	0x3719f8a3	9.177401e-06
60	0x3870cda1	5.7411966e-05
61	0xba049f8a	-0.00050591736
62	0x37a60291	1.9789937e-05
63	0xbaad00a0	-0.0013199039
64	0xb59f8b20	-1.1886914e-06
65	0x37f27770	2.8904265e-05
66	0xb644267c	-2.9228677e-06
67	0xb6d55201	-6.357441e-06
68	0xbb9430c2	-0.004522414
69	0x35a99386	1.2634416e-06
70	0x38943857	7.067684e-05
71	0xb960c8d9	-0.00021437126
72	0xb6341004	-2.6831412e-06
73	0x394f50ef	0.00019771208
74	0xb76adf04	-1.3999412e-05
75	0x35ddf6da	1.6537626e-06
76	0x38827e99	6.222464e-05
77	0x3732a7a5	1.064866e-05
78	0x376695eb	1.3743974e-05
79	0x397fdf3e	0.00024401859
80	0x36d20d64	6.2600466e-06
81	0x36354403	2.701069e-06
82	0xb4c6fccc	-3.7064308e-07
83	0x36d95aee	6.4776896e-06
84	0x376a0e2b	1.3950786e-05
85	0xb8ba4c59	-8.883392e-05
86	0xb603cb07	-1.9638699e-06
87	0xb7ff3d42	-3.0426894e-05
88	0x36fed875	7.594989e-06
89	0xb1d79000	-6.2736945e-09
90	0x374a8823	1.2071835e-05
91	0x381c0af5	3.7203503e-05
92	0x34edc246	4.4286043e-07
93	0xb9d7182c	-0.00041026005
94	0xb5e24594	-1.6858562e-06
95	0x36c64305	5.908662e-06
96	0xb9689949	-0.00022182347
97	0x335eab00	5.1843926e-08
98	0x390656d7	0.00012811586
99	0x3826793f	3.9690403e-05
100	0x3873b922	5.8108133e-05
101	0xb787d71e	-1.6193426e-05
102	0x3902236a	0.00012410959
103	0xb958d284	-0.00020677788
104	0x36d5471e	6.356174e-06
105	0x3386c0e0	6.274945e-08
106	0xb83fe517	-4.5751305e-05
107	0x379597d3	1.7832883e-05
108	0x390cef48	0.0001344058
109	0x38b1f57e	8.485744e-05
110	0xb6311365	-2.6386344e-06
111	0x3822f75e	3.885419e-05
112	0x3896f00b	7.197269e-05
113	0xb6aa1880	-5.069247e-06
114	0x38abb8b4	8.188319e-05
115	0x36a9f371	5.064933e-06
116	0x3984d63e	0.00025336625
117	0x3406c333	1.2550736e-07
118	0x35ee4ff9	1.7755657e-06
119	0xb86a3b95	-5.5845438e-05
120	0x392d8f02	0.0001655184
121	0x38af2dc4	8.353175e-05
122	0xb7b8eefb	-2.2045793e-05
123	0xb62dd5ec	-2.5903528e-06
124	0x358689cc	1.0023882e-06
125	0xb7e38d45	-2.7126292e-05
126	0xb7933d50	-1.7552316e-05
127	0x391d8cb0	0.00015025097
128	0x39cee532	0.00039462146
129	0xb7cb6c30	-2.4249865e-05
130	0x34b41870	3.3545393e-07
131	0xb8772cfc	-5.8931284e-05
132	0xb73520f5	-1.0796114e-05
133	0x36f36125	7.2532735e-06
134	0x3856c968	5.120915e-05
135	0x3905cad1	0.00012759423
136	0x370ac540	8.271367e-06
137	0xb2ea5410	-2.7279413e-08
138	0x38706ef1	5.732378e-05
139	0xb894a258	-7.087429e-05
140	0xb68d27f9	-4.206781e-06
141	0x37131650	8.767078e-06
142	0x36162bf4	2.2377326e-06
143	0x37961fac	1.7896142e-05
144	0xb793f6e4	-1.7638733e-05
145	0x370af5b2	8.282646e-06
146	0xb5987f3a	-1.136191e-06
147	0x3590a5d2	1.0777096e-06
148	0xb9e593b7	-0.0004378834
149	0x36fdea34	7.5672524e-06
150	0x3708dbef	8.157439e-06
151	0x37518c97	1.2490104e-05
152	0x3526c2a3	6.212305e-07
153	0x379ac034	1.8447732e-05
154	0x374a48ae	1.205706e-05
155	0xb5b3b758	-1.3389899e-06
156	0x3761e613	1.3464613e-05
157	0xb98fe73b	-0.00027447366
158	0xb5922c4c	-1.089074e-06
159	0x38f495d0	0.000116627314
160	0x35fad357	1.868796e-06
161	0x36606904	3.3439728e-06
162	0xb6daa78e	-6.516412e-06
163	0x3771a434	1.4402951e-05
164	0xb8e76dee	-0.00011035414
165	0x35d08057	1.553456e-06
166	0xb432ae5b	-1.6640972e-07
167	0xb592e7ea	-1.0945344e-06
168	0xb6fdba82	-7.5617e-06
169	0xb8655bdb	-5.46834e-05
170	0xb66e4a6f	-3.550809e-06
171	0x386dcd96	5.669667e-05
172	0xbb319b27	-0.0027100535
173	0x394c859f	0.00019504734
174	0xb808fb32	-3.265887e-05
175	0x36e9e160	6.970178e-06
176	0x333545b0	4.2205727e-08
177	0xb68a6300	-4.1242456e-06
178	0xb54fd43c	-7.742235e-07
179	0xb564fb3d	-8.530222e-07
180	0x382d77bc	4.1357926e-05
181	0xb66cbf78	-3.527819e-06
182	0xb827dfb4	-4.0024242e-05
183	0x37837bee	1.5674126e-05
184	0x38cb4d9d	9.694251e-05
185	0x3808f6f5	3.2654923e-05
186	0xb44e3a10	-1.9206368e-07
187	0x37a1cb47	1.9287354e-05
188	0x36730583	3.621303e-06
189	0xb91f5efa	-0.00015198803
190	0xb9d251ed	-0.0004011536
191	0xb725b924	-9.877873e-06
192	0xb54d66d6	-7.6518097e-07
193	0x34f49cc8	4.5562615e-07
194	0xb5675dc7	-8.619067e-07
195	0xbadaad10	-0.0016683657
196	0xb618ca94	-2.276768e-06
197	0xb6b127e6	-5.279656e-06
198	0x3790817c	1.7226434e-05
199	0x37698fbe	1.392135e-05
200	0x38b3a1e1	8.5655374e-05
201	0x39e67d62	0.00043962436
202	0xb6a5f091	-4.945389e-06
203	0x38366b6b	4.3492222e-05
204	0x382a6e74	4.0634026e-05
205	0x346ad45b	2.1870203e-07
206	0xb7ea3cd1	-2.7923294e-05
207	0x365ec86e	3.3197243e-06
208	0x38437f37	4.66101e-05
209	0x38ad2393	8.255909e-05
210	0x37d2ce09	2.5129893e-05
211	0x38976d93	7.220651e-05
212	0xb6bc7570	-5.616508e-06
213	0x37cb1059	2.4207098e-05
214	0x357e415a	9.471747e-07
215	0xb6f8a7ce	-7.410511e-06
216	0xbaad911e	-0.0013242101
217	0x37170f30	9.0038375e-06
218	0xb628d536	-2.5158056e-06
219	0x38ad25df	8.256337e-05
220	0x3947981c	0.00019034784
221	0xb8815917	-6.1677936e-05
222	0xb74c052e	-1.21605535e-05
223	0x3370e938	5.6091466e-08
224	0xb7dda94c	-2.6424088e-05
225	0xb6f138f9	-7.188992e-06
226	0x368b9256	4.1595586e-06
227	0x38a6577a	7.9317906e-05
228	0x389f13db	7.585409e-05
229	0x37c49f6f	2.3439263e-05
230	0x37a57f58	1.9728832e-05
231	0x3592d5c3	1.094006e-06
232	0xb70c1f06	-8.3518735e-06
233	0x3848aa68	4.784242e-05
234	0x37cf657d	2.4723582e-05
235	0xb85d0236	-5.2692565e-05
236	0xb866497d	-5.4904714e-05
237	0x36230134	2.4289593e-06
238	0x381542a3	3.558643e-05
239	0x370e2c81	8.474221e-06
240	0xb4c6445e	-3.6930118e-07
241	0x360777ae	2.018623e-06
242	0x38cc4670	9.740598e-05
243	0xb389ad53	-6.411087e-08
244	0x36498df6	3.0033966e-06
245	0x38d9acc4	0.000103795464
246	0x36332e8d	2.6700175e-06
247	0xb9ec5203	-0.0004507453
248	0x37ee4156	2.8402235e-05
249	0xba15eba3	-0.00057190115
250	0xb6fc89b8	-7.526218e-06
251	0x379a4022	1.8388095e-05
252	0x385101b5	4.9831073e-05
253	0x37c5ec3e	2.3594239e-05
254	0xb78cc31e	-1.6780159e-05
255	0x36628faa	3.3760248e-06

fc2.bias f4 [128]
0	0xba246887	-0.00062716793
1	0x3cfd6843	0.030933505
2	0xb69ffc89	-4.767968e-06
3	0xb7cb3f05	-2.4228832e-05
4	0x3d01db49	0.031703267
5	0xb9e6e047	-0.00044036118
6	0xbc2228b3	-0.009897399
7	0xbb6561ea	-0.0035000988
8	0x3e299b13	0.16563062
9	0x3cd23585	0.025660286
10	0x3c958cad	0.018255556
11	0xb7a7fb98	-2.0025109e-05
12	0xb715cdbb	-8.928992e-06
13	0xbe098357	-0.13429008
14	0xbb834294	-0.0040057395
15	0xb6c4368c	-5.8476053e-06
16	0xbd5488d7	-0.051888313
17	0x3bf91822	0.007601754
18	0xb8f1fc85	-0.00011538811
19	0xbcf9dc13	-0.030500447
20	0xbaf08b4f	-0.0018352064
21	0x3c7da711	0.015481726
22	0x3dcaa028	0.09893829
23	0xb92914ad	-0.00016124798
24	0x3ddb5fb6	0.10711615
25	0xbb1da83e	-0.002405658
26	0xbc9043b9	-0.017610418
27	0x3c9dc89e	0.0192607
28	0xbd028309	-0.031863246
29	0xb34c2d50	-4.7538663e-08
30	0xb8e6a5dc	-0.00010998148
31	0xbd854ad8	-0.06508416
32	0xb8932b69	-7.017592e-05
33	0xb63df1f2	-2.8304025e-06
34	0xbcec9336	-0.02887879
35	0xb90ffba4	-0.00013731286
36	0xb8d696e7	-0.00010232423
37	0x3cb87d9b	0.02252083
38	0xbb6028b8	-0.0034203958
39	0xb8dd5364	-0.00010553634
40	0xbb143115	-0.0022612263
41	0xbd8be514	-0.068308026
42	0x3bbb52fb	0.005716679
43	0xbc7d52b9	-0.015461617
44	0xbb44c23e	-0.0030023004
45	0xbd3efe97	-0.046629515
46	0xbb78f955	-0.003799041
47	0xb9cab6cf	-0.00038664645
48	0xbdbb0a7d	-0.0913286
49	0xbb5a4eb6	-0.0033311076
50	0x3d6969de	0.05698573
51	0xb941160f	-0.00018414132
52	0xb6ef2cd5	-7.127974e-06
53	0x3d809871	0.06279076
54	0xba8bf9ac	-0.0010679266
55	0xbb30c67a	-0.002697377
56	0xb8ef3ac4	-0.00011407354
57	0xbc143343	-0.009045425
58	0xbabe3cc1	-0.0014513956
59	0xbb14077f	-0.0022587476
60	0xbc9d5f84	-0.019210584
61	0x3dcc6169	0.09979517
62	0xbb0035cb	-0.0019563313
63	0xbd9705b2	-0.07374133
64	0xb35c153a	-5.1242047e-08
65	0xbdd1c8a7	-0.102433495
66	0xbe0f7406	-0.14009103
67	0xb52d0078	-6.4448204e-07
68	0xbe1e55e1	-0.15462448
69	0xbba8fc8d	-0.0051570595
70	0xb47a1cda	-2.329356e-07
71	0xbb94ed40	-0.004544884
72	0xb97a3ef7	-0.00023865314
73	0xba968883	-0.0011484775
74	0x3996850d	0.0002870936
75	0xbc07f0d8	-0.008297168
76	0xbb4646f8	-0.0030254703
77	0xb99290e6	-0.00027955248
78	0xb96b5ee6	-0.00022446699
79	0xbccdb617	-0.025111241
80	0xba666c1e	-0.00087899144
81	0xb9449223	-0.00018746457
82	0xb9ed4375	-0.00045254422
83	0xb6f5db30	-7.3270858e-06
84	0x3dd08ca2	0.101830736
85	0x3d5f01c0	0.05444503
86	0x3ca6099c	0.020268254
87	0x3dddc9e0	0.1082952
88	0x3e11b858	0.14230478
89	0x3da11613	0.078655384
90	0xbd6e029d	-0.05810796
91	0xb8593c96	-5.1793257e-05
92	0xb5c00e46	-1.4309269e-06
93	0xb920239e	-0.00015272057
94	0xbb5712ae	-0.003281753
95	0xba305169	-0.0006725998
96	0xb9658368	-0.00021888094
97	0xbc54d967	-0.012991286
98	0xb74bf15e	-1.2155941e-05
99	0xbd06380a	-0.032768287
100	0xb5f62388	-1.8338769e-06
101	0xb7955fe9	-1.7806846e-05
102	0xb8f9406e	-0.00011885246
103	0xba0bcdb1	-0.00053330796
104	0x3dad2839	0.084549375
105	0xbb75225f	-0.003740452
106	0xbc35b696	-0.011090895
107	0xb78fb831	-1.71327e-05
108	0xb9fed5e8	-0.00048606028
109	0xb99840a2	-0.00029039854
110	0xb0a250a6	-1.1809973e-09
111	0xbad72e9f	-0.0016417092
112	0xbae88ff6	-0.0017743099
113	0xbe3cbdb2	-0.18431738
114	0xb656c774	-3.2004582e-06
115	0x3d56a095	0.052399237
116	0xb9c2a73f	-0.00037127172
117	0xb9d13ad4	-0.00039907417
118	0xb7e1d828	-2.6922746e-05
119	0xbc2598f9	-0.010107272
120	0xbd4d9f82	-0.050200947
121	0x3d6c9f26	0.057768963
122	0xb95fbef6	-0.00021338076
123	0xb9d47c57	-0.0004052843
124	0xbc06315d	-0.00819048
125	0xbca16ae3	-0.019704288
126	0xbc920471	-0.017824383
127	0xb97441ed	-0.00023294213

fc3.weight f4 [1, 128]
0	0x3ac0026f	0.0014649163
1	0x3e721217	0.23639713
2	0xb71d6584	-9.381565e-06
3	0xb70ef7ba	-8.521538e-06
4	0xbe462511	-0.19350077
5	0xb9a4f63f	-0.00031463985
6	0xbc99426e	-0.018708434
7	0x3dab2a7e	0.08357714
8	0x3e3f5e4b	0.18688314
9	0x3d9a64fb	0.07538792
10	0xbd06260d	-0.03275113
11	0xb7eb18ab	-2.802567e-05
12	0x37acd113	2.0601356e-05
13	0xbdabb341	-0.08383799
14	0xbba0b2b1	-0.004904114
15	0x38590190	5.1738287e-05
16	0xbda44266	-0.08020477
17	0xbd1cf902	-0.03832341
18	0x3a59e609	0.0008312171
19	0xbca78bc7	-0.020452393
20	0xbaccbed9	-0.0015620842
21	0xbd59e625	-0.053198
22	0x3de98a77	0.11403363
23	0x39b2c4f7	0.00034097556
24	0x3e903692	0.28166634
25	0xbac8b02e	-0.0015311295
26	0x3d1268a2	0.035744317
27	0xbd734443	-0.05939127
28	0xbd8206d1	-0.063489564
29	0xb2a24d2a	-1.8894372e-08
30	0xb9c50f43	-0.0003758614
31	0x3e0aef25	0.13567789
32	0xb8ea9cfc	-0.0001118723
33	0x339579ba	6.960495e-08
34	0xbc9186ed	-0.017764533
35	0xb98fdb1f	-0.00027438343
36	0xb9c6adef	-0.00037895094
37	0x3dccec87	0.100060515
38	0x3c1a774e	0.0094278585
39	0x39499022	0.00019222547
40	0x3baabf8d	0.005210823
41	0xbdffce62	-0.12490536
42	0x3e4bb3ce	0.19892809
43	0x3d474c6c	0.048656866
44	0x3a6f146b	0.0009120169
45	0xbde6aa96	-0.112630054
46	0x3b160820	0.0022893026
47	0xb8cb3015	-9.68875e-05
48	0xbe29c1fd	-0.16577907
49	0xbc07bf89	-0.008285412
50	0x3de3cf4b	0.11123522
51	0x3a8ef840	0.0010907724
52	0x372963ce	1.0096423e-05
53	0xbdce3af7	-0.100698404
54	0xbac3b566	-0.001493138
55	0x3c2471f1	0.010036931
56	0x39264a14	0.0001585859
57	0x3b852ca2	0.0040641585
58	0xbc1e6ca8	-0.00966946
59	0xb976ce69	-0.00023537282
60	0xbe13eae6	-0.14445075
61	0x3e097851	0.13424803
62	0xbbcd0a95	-0.006257365
63	0x3d2c4653	0.042059254
64	0xb38ca492	-6.549193e-08
65	0xbd948c62	-0.072533384
66	0xbe2ad38e	-0.16682264
67	0x35a1058e	1.1997051e-06
68	0x3dc24197	0.094851665
69	0xbaecf999	-0.0018079757
70	0xb55475fa	-7.914783e-07
71	0x3caa512c	0.020790659
72	0x39758fb0	0.00023418549
73	0xbb2d564b	-0.002644914
74	0x3d855f42	0.065123096
75	0x3bc4f5e4	0.0060107578
76	0x3b8d6713	0.004315266
77	0x39bc5dff	0.00035928187
78	0xbae320bd	-0.0017328482
79	0x3ca1145f	0.019663034
80	0x3a6b26a3	0.0008970296
81	0x399c28db	0.00029785078
82	0x3a51fb64	0.00080101774
83	0x37b7864a	2.1877833e-05
84	0x3dd7c776	0.10536091
85	0x3e294a27	0.16532193
86	0xbd853742	-0.0650468
87	0xbe55f140	-0.20892811
88	0x3d8ac4fa	0.067758515
89	0x3d79f5a0	0.061025262
90	0xbda6d0fb	-0.081453286
91	0x38850766	6.343312e-05
92	0x358c7ec0	1.0467702e-06
93	0x384ee496	4.9327115e-05
94	0xbc146a28	-0.009058513
95	0x3bcedc5c	0.00631289
96	0x39f7df4f	0.0004727789
97	0xbd097249	-0.033556256
98	0xb816ca27	-3.5951056e-05
99	0xbcd2e658	-0.025744602
100	0xb6ab81c9	-5.111306e-06
101	0x38f5575b	0.000116987816
102	0xb7b9e3e6	-2.2159842e-05
103	0x3909c55a	0.00013138857
104	0x3d67173b	0.05641864
105	0xbc127c71	-0.008940802
106	0x3e75d183	0.24005704
107	0xb72aca3c	-1.0179876e-05
108	0xba751795	-0.00093495223
109	0x3a5d4cfb	0.0008441952
110	0x30879bd5	9.866833e-10
111	0xb9b46fc7	-0.00034415556
112	0x3b51d154	0.0032015638
113	0xbe1dff17	-0.1542934
114	0xb6148354	-2.2130162e-06
115	0xbd600284	-0.0546899
116	0xba1054d4	-0.00055058044
117	0xb86914f7	-5.5571054e-05
118	0xb7a7ceb4	-2.0004205e-05
119	0x3ca8d15a	0.02060764
120	0xbe091f1d	-0.13390775
121	0x3cec46a4	0.028842278
122	0xb7e3af10	-2.7142029e-05
123	0xb95ceca5	-0.00021068992
124	0x3b1424d3	0.0022604957
125	0x387ff818	6.1027793e-05
126	0xbb422537	-0.0029624233
127	0x38f890fa	0.000118525655
