p3_collab-compet/checkpoint_actor.pth (torch_old, 159230 bytes, 6 tensors)

fc1.weight f4 [256, 24]
0	0x3d37b645	0.04485156
1	0xbd9c7977	-0.07640355
2	0x3d5c7aec	0.053828165
3	0x3ce3fc93	0.027830398
4	0x3e285a0a	0.16440597
5	0x3dda0e66	0.106472775
6	0xbcd1ca89	-0.025609272
7	0xbe01cff0	-0.12676978
8	0x3c0087e8	0.007844903
9	0xbe664337	-0.22486578
10	0x3c828795	0.015933791
11	0x3d2054b9	0.039143298
12	0x3ca6e945	0.020374903
13	0x3e914d43	0.2837926
14	0x3b32d3be	0.0027286853
15	0x3de1bd49	0.110224314
16	0x3c86f235	0.016472915
17	0xbe838c70	-0.25693083
18	0xbda3cc65	-0.079979695
19	0x3e32ed35	0.174733
20	0xbe6ee4b0	-0.23329425
21	0x3e242f73	0.16033725
22	0xbc90de61	-0.017684164
23	0x3dfc55ae	0.123210296
24	0xbca3dc59	-0.02000253
25	0xbd9cb9df	-0.076526396
26	0xbc8c7430	-0.017145246
27	0xbe5b0940	-0.21390247
28	0xbd8dceda	-0.069242194
29	0xbdea9b63	-0.11455419
30	0xbe4566cd	-0.19277497
31	0xbe6da560	-0.23207617
32	0x3d5e9bd5	0.05434783
33	0xbc914f76	-0.017738085
34	0x3d17b4a7	0.037037518
35	0xbdda7979	-0.106677
36	0x3e08d827	0.13363706
37	0x3d9268b3	0.07148876
38	0xbc95624c	-0.018235348
39	0xbe000300	-0.12501144
40	0xbd844e05	-0.064601935
41	0xbe829ee2	-0.25511843
42	0x3dc250b4	0.09488049
43	0x3dae2508	0.08503157
44	0x3d0ccaff	0.03437328
45	0x3eae400c	0.3403324
46	0x3dc11ed8	0.09429711
47	0x3c70b898	0.014692448
48	0x3de573f6	0.112037584
49	0xbe4d2e6d	-0.20037241
50	0x3d90dbcf	0.07073175
51	0x3dcc24cc	0.09967956
52	0x3e4b716c	0.19867486
53	0x3c6524ec	0.013985854
54	0xbdb42245	-0.08795599
55	0xbd3e953d	-0.046529043
56	0x3b4a7351	0.0030891488
57	0xbdefa690	-0.11701691
58	0xbd431ad8	-0.047633022
59	0x3e39c556	0.18141684
60	0x3e2d04ca	0.16896358
61	0xbe35a031	-0.1773689
62	0xbc2d8160	-0.010589927
63	0x3e41283a	0.18863001
64	0x3e55b79f	0.20870827
65	0xbe8449a2	-0.25837427
66	0x3d0989da	0.03357873
67	0xbe3573e5	-0.17719992
68	0x3bf6be28	0.0075299926
69	0x3e85d5ed	0.26139775
70	0xbe615f36	-0.22008976
71	0x3e44b931	0.1921127
72	0xbe56c885	-0.2097493
73	0xbd43545d	-0.047687877
74	0x3cd2b2c4	0.025720008
75	0xbd4fd3dd	-0.050739158
76	0x3d7a890d	0.061165858
77	0xbe707c01	-0.23484804
78	0xbc2a5ce0	-0.01039812
79	0xbe5ceaa1	-0.21573879
80	0x3dfecbf3	0.12441244
81	0xbdf4b35f	-0.11948275
82	0xbe2d2bbc	-0.16911215
83	0x3dc38d70	0.095484614
84	0x3e2b11cb	0.16706006
85	0x388452f9	6.309705e-05
86	0x3c75938a	0.014988789
87	0x3e0983b6	0.1342915
88	0xbe30572c	-0.17220753
89	0xbe1e32ba	-0.15449038
90	0x3c412dbe	0.011790691
91	0xbda56b18	-0.08077067
92	0x3e52234d	0.20521279
93	0x3e8997bc	0.26873577
94	0x3e1d4b92	0.15360859
95	0x3e2ffaf3	0.17185573
96	0xbe4c994c	-0.19980353
97	0xbd543887	-0.05181172
98	0xbe0c9d42	-0.13731864
99	0xbdcc18d6	-0.099656746
100	0xbdb64856	-0.08900516
101	0xbddce29c	-0.1078541
102	0xbe47daf4	-0.19517118
103	0x3d559b75	0.05215021
104	0x3d9d6208	0.076847136
105	0x3e187e05	0.14891823
106	0x3dc2b3f6	0.09506981
107	0x3e180890	0.14847016
108	0xbe3c9d59	-0.18419398
109	0xbca91441	-0.02063954
110	0x3e1e6b07	0.15470515
111	0xbe1c793e	-0.15280625
112	0xbdce20e7	-0.100648694
113	0x3d9cbdd2	0.07653393
114	0xbe211134	-0.15729219
115	0xbda3fa49	-0.080067225
116	0xbd128a2e	-0.03577631
117	0x3e608237	0.21924673
118	0xbd30b82a	-0.043144383
119	0x3d8d82cf	0.069097154
120	0x3e1ad216	0.15119204
121	0x3d3e555a	0.046468116
122	0xbe2c0a2c	-0.16800755
123	0x3e44f0d6	0.19232497
124	0x3e523ecc	0.20531768
125	0xbe37a4c1	-0.17933942
126	0xbd8198d0	-0.06327975
127	0x3e368b54	0.17826587
128	0xbe528ffd	-0.2056274
129	0xbe62e311	-0.22156931
130	0xbe101b05	-0.14072807
131	0x3e01dcad	0.12681837
132	0x3c4bc536	0.0124371555
133	0xbe77bdec	-0.24193543
134	0x3d9d2c95	0.07674519
135	0x3e2a7592	0.16646412
136	0x3d1e2783	0.0386119
137	0xbe415092	-0.18878391
138	0x3e347e4e	0.17626306
139	0x3d9ce33e	0.076605305
140	0xbe1fc638	-0.15602958
141	0xbdd06f1f	-0.10177445
142	0x3de2fa1d	0.110828616
143	0x3e3e79d4	0.18601161
144	0x3d07418f	0.033021506
145	0x3eabf709	0.3358691
146	0xbe52e293	-0.20594244
147	0x3e4b7f06	0.19872674
148	0x3e3c6f68	0.18401873
149	0xbe0c26a2	-0.13686612
150	0x3cc541e2	0.024079267
151	0x3cc61169	0.024178224
152	0xbe2e4075	-0.17016776
153	0x3e132a8f	0.14371704
154	0xbdc4d613	-0.09611144
155	0xbe2d4df4	-0.16924268
156	0xbe0c28ad	-0.13687392
157	0xbdc40b29	-0.09572441
158	0x3e256874	0.16153127
159	0x3da022e2	0.07819153
160	0xbdd3e55f	-0.103464834
161	0x3e4a2ab0	0.19742846
162	0x3c98c3a2	0.018647972
163	0xbe1bf4d3	-0.15230112
164	0xbcc6e113	-0.024277246
165	0xbcea085f	-0.028568445
166	0xbdf1f03d	-0.118134
167	0x3d1ab02b	0.037765663
168	0xbdad95b9	-0.08475823
169	0xbe4e38b9	-0.20138825
170	0xbdb4e086	-0.08831887
171	0xbb8f535c	-0.004373951
172	0x3e115ed1	0.14196326
173	0x3d0d6b41	0.034526113
174	0xbe1fa557	-0.15590416
175	0xbcda1090	-0.026619226
176	0xbe378744	-0.17922693
177	0xbdac5aa9	-0.084157296
178	0x3e283582	0.16426662
179	0x3da0c484	0.078499824
180	0xbdf9400b	-0.12170418
181	0x3da36853	0.07978883
182	0x3dc1de72	0.09466256
183	0x3d3f8684	0.046759143
184	0xbe18f81f	-0.149384
185	0xbe4551dc	-0.19269508
186	0xbd8e8398	-0.06958693
187	0x3e0143a4	0.12623459
188	0x3e407cbd	0.18797584
189	0x3dcfd3df	0.10147833
190	0x3da340ba	0.0797133
191	0xbdf9d645	-0.12199072
192	0x3de04842	0.10951282
193	0x3b9202e4	0.004455911
194	0xbe034814	-0.12820464
195	0xbe2989fe	-0.16556546
196	0x3d957795	0.07298199
197	0xbe845dda	-0.25852853
198	0x3ca645a7	0.020296885
199	0x3db536ad	0.08848319
200	0xbe2a3513	-0.16621809
201	0xbe5e459e	-0.21706244
202	0xbe073f70	-0.13207793
203	0xbe22d744	-0.1590243
204	0x3d797f55	0.06091245
205	0x3e159e77	0.14611231
206	0x3cee9294	0.029122628
207	0xbd4cf512	-0.050038405
208	0xbd5f0f41	-0.054457907
209	0xbe346518	-0.17616689
210	0xbe24c641	-0.16091253
211	0xbd841090	-0.064484715
212	0x3de112bc	0.109899014
213	0x3d4df278	0.050280064
214	0xbe18a335	-0.14906009
215	0x3d504c35	0.050853927
216	0x3d8ed889	0.069748946
217	0xbde73af4	-0.11290541
218	0x3cd5681e	0.026050624
219	0x3e75aac9	0.2399093
220	0xbd4a1fdf	-0.0493468
221	0xbdd73a85	-0.105092086
222	0x3e22bb21	0.15891697
223	0x3e4ae77b	0.19814865
224	0xbceb252f	-0.028704254
225	0xbe07f8fd	-0.13278575
226	0xbdcdf2da	-0.10056086
227	0x3e914e57	0.2838008
228	0x3d21b389	0.03947786
229	0xbd8e1bf7	-0.069389276
230	0xbbcdf040	-0.0062847435
231	0x3e1738c3	0.14767747
232	0x3d758383	0.059939872
233	0x3d8b4d44	0.068018466
234	0xbe14227d	-0.14466281
235	0x3debed32	0.11519851
236	0xbd8d06ce	-0.068860635
237	0xbe413312	-0.18867138
238	0xbe0e5afd	-0.13901897
239	0x3cb853b0	0.022500843
240	0xbd9a0ba3	-0.07521751
241	0xbc920978	-0.01782678
242	0xbe01d29f	-0.12678002
243	0xbea2db2b	-0.31807837
244	0x3e5a2f1e	0.21307036
245	0x3e0a206a	0.13488927
246	0x3e22810b	0.15869538
247	0xbd0ee8ea	-0.034890093
248	0xbd8d60f8	-0.06903261
249	0xbe7a3aeb	-0.24436538
250	0xbdac497e	-0.08412455
251	0x3ac1b0db	0.0014777438
252	0x3ded1066	0.115753934
253	0xbdc61aac	-0.09673056
254	0xbdd04e3c	-0.10171172
255	0x3e045c10	0.12925744

fc1.bias f4 [256]
0	0x3e139c8b	0.14415185
1	0xbe21b8d9	-0.1579317
2	0x3dd2cbe2	0.10292794
3	0xbddd6797	-0.10810774
4	0x3e33b4ba	0.1754941
5	0x3e1901d2	0.149421
6	0x3d66688d	0.05625205
7	0xbe707d72	-0.23485354
8	0xbd838e14	-0.064235836
9	0x3da43a05	0.08018879
10	0xbe2c1dc5	-0.16808231
11	0x3e134aba	0.14383975
12	0xbdb555a6	-0.08854227
13	0xbe26dddd	-0.16295572
14	0xbd063715	-0.032767374
15	0xbcb4af62	-0.022056285
16	0x3e1eca58	0.15506876
17	0xbddb23d4	-0.10700193
18	0xbe3959f9	-0.18100728
19	0xbcb4e500	-0.022081852
20	0xbc9d4e3a	-0.01920234
21	0xbde20906	-0.11036877
22	0xbdecd7e8	-0.11564618
23	0xbda0a12e	-0.078432426
24	0x3d58ef6f	0.052962717
25	0xbce0dfbd	-0.027450437
26	0x3e50f79e	0.20406958
27	0x3e229d77	0.1588038
28	0xbde3b3ac	-0.11118254
29	0x3d67bc78	0.056576222
30	0xbde0c4b9	-0.10975022
31	0xbe3823a9	-0.17982353
32	0xbda5d81f	-0.080978625
33	0x3e85fa70	0.2616763
34	0x3bff44b8	0.0077901743
35	0xbdf91818	-0.12162799
36	0xbe344c8c	-0.17607325
37	0x3e23dcae	0.16002151
38	0x3e4267c0	0.1898489
39	0xbde231fd	-0.11044691
40	0x3def0a4b	0.11671885
41	0x3d84ce75	0.06484691
42	0xbde3c4eb	-0.111215435
43	0x3db3bef3	0.08776655
44	0xbb8779ea	-0.0041344063
45	0xbcd8aa32	-0.026448343
46	0xbdec350e	-0.11533557
47	0x3dbedd7f	0.09319591
48	0x3d52e397	0.051486578
49	0x3dd1a3ab	0.10236295
50	0x3d92f7d8	0.07176179
51	0x3e0f1b28	0.13975203
52	0xbcbfcf11	-0.023414167
53	0x3dc84477	0.09778684
54	0x3e10a220	0.14124346
55	0x3e04ec67	0.12980805
56	0x3dfd2213	0.12360015
57	0xbddd0f54	-0.10793939
58	0xbd5e57f0	-0.054283082
59	0x3d31ccad	0.043408085
60	0xbe0725bc	-0.13197988
61	0x3ddee7cd	0.10884056
62	0xbdfe5be8	-0.124198735
63	0xbe47a2c5	-0.19495685
64	0x3d8f3e3f	0.069942944
65	0xbe0f19c6	-0.13974676
66	0xbe6b1031	-0.22955395
67	0x3dcdab15	0.10042397
68	0xbdc81cf5	-0.09771148
69	0xbdf6aa79	-0.12044234
70	0xbe019466	-0.12654266
71	0xbd446300	-0.047945976
72	0xbda43f97	-0.08019941
73	0xbdb0d650	-0.08634627
74	0xbdd0e297	-0.101994686
75	0xbc84ee05	-0.016226778
76	0x3d199636	0.037496768
77	0xbe0aa94b	-0.13541143
78	0xbe1d9c2c	-0.15391606
79	0x3d515c4c	0.05111341
80	0xbdf2b0d5	-0.11850134
81	0x3df24a95	0.11830632
82	0xbd3f37e4	-0.04668416
83	0x3e1bc4f9	0.15211858
84	0xbd358004	-0.04431154
85	0xbd7a1785	-0.061057586
86	0xbe17ef66	-0.14837417
87	0x3dc00121	0.09375215
88	0x3da72e3d	0.08163116
89	0xbd3942dc	-0.045229778
90	0x3e34bc06	0.1764985
91	0x3e5852e4	0.2112537
92	0xbe28bd68	-0.16478503
93	0x3d27108b	0.04078726
94	0x3e41947f	0.18904303
95	0x3c804bec	0.015661202
96	0xbe3335b8	-0.17500961
97	0xbdb00ee4	-0.0859659
98	0x3ca1853e	0.019716855
99	0xbdc672ed	-0.09689889
100	0x3df914a2	0.121621385
101	0x3d85e414	0.06537643
102	0xbe2e1630	-0.17000651
103	0x3cde3533	0.027124977
104	0x3d8724a2	0.06598784
105	0x3e011bc7	0.12608252
106	0xbc287366	-0.010281419
107	0x3dd13eb6	0.10217039
108	0x3c3b8e66	0.011447525
109	0xbdfaf1c3	-0.12253144
110	0xbe18e8de	-0.14932582
111	0xbd374208	-0.044740707
112	0x3d72d9c9	0.059289727
113	0xbdb19322	-0.086706415
114	0xbe5a9431	-0.21345593
115	0x3e0b47af	0.13601564
116	0xbd45ea88	-0.04831937
117	0x3d9080d3	0.07055821
118	0xbdce1a5c	-0.100636214
119	0xbbb1ed15	-0.0054298737
120	0xbc60121c	-0.013676193
121	0x3d0e96e0	0.034811854
122	0xbdbc0316	-0.09180276
123	0x3e1b1be5	0.1514736
124	0x3d6d9465	0.05800285
125	0xbc158896	-0.009126803
126	0x3dd1b990	0.10240471
127	0xbc82cf7e	-0.01596808
128	0x3deb68cb	0.11494597
129	0xbd92470d	-0.07142458
130	0x3dbe2f8d	0.09286413
131	0xbe320463	-0.17384486
132	0x3e9b8ac5	0.3037931
133	0xbde5edc7	-0.11226993
134	0x3e43bb75	0.19114478
135	0x3df55807	0.119796805
136	0xbdf2c22c	-0.118534416
137	0xbe0c8d7d	-0.13725848
138	0x3d2616b6	0.040549003
139	0x3db79f3a	0.08965917
140	0xbe043181	-0.12909509
141	0x3e5f5f71	0.21813752
142	0xbcc1a5dd	-0.02363866
143	0x3e6fff84	0.23437315
144	0x3c5ee0f7	0.0136034405
145	0xbe6d3f06	-0.23168573
146	0x3c165d67	0.009177542
147	0xbd83d16b	-0.06436428
148	0x3d7bd499	0.061482046
149	0xbdb1a293	-0.08673587
150	0x3e5e5687	0.21712695
151	0xbdd12f29	-0.10214073
152	0x3e23c3fe	0.15992734
153	0xbe16006e	-0.14648601
154	0x3e0b95c6	0.13631353
155	0xbe211510	-0.15730691
156	0x3cfa687e	0.030567404
157	0xbd814b76	-0.06313221
158	0xbe50a4e3	-0.203754
159	0x3dfe3e97	0.12414282
160	0xbc5e72d3	-0.013577181
161	0x3e58ab3b	0.21159069
162	0xbe07927b	-0.13239472
163	0xbd43abba	-0.047771193
164	0xbda9267f	-0.08259296
165	0xbe41cf3e	-0.18926713
166	0x3d33e806	0.043922447
167	0x3dda9465	0.10672835
168	0xbca8fa38	-0.020627126
169	0xbdcd7db1	-0.10033739
170	0x3cbb02bf	0.022828458
171	0x3dbee226	0.09320478
172	0x3d9d6cb9	0.07686753
173	0xbe8dc425	-0.2768871
174	0x3df0692e	0.117388114
175	0x3e3fec40	0.18742466
176	0xbdd1f729	-0.1025222
177	0xb8707867	-5.7332592e-05
178	0x3cc648da	0.02420466
179	0x3c6a0537	0.01428347
180	0x3e1e1ab1	0.1543987
181	0x3e245e86	0.16051683
182	0x3da6432c	0.08118281
183	0xbe09c078	-0.13452327
184	0x3e08e61d	0.13369031
185	0x3d800c20	0.06252313
186	0x3e3e6bf5	0.1859587
187	0xbdbe28b1	-0.09285105
188	0x3d454c62	0.048168547
189	0x3e04efac	0.12982053
190	0x3df3bfb6	0.119018
191	0x3c9bf338	0.019036874
192	0xbda9e243	-0.08295109
193	0xbd43f162	-0.047837622
194	0x3dac5d26	0.08416204
195	0xbdbc5028	-0.09194976
196	0xbe8bce36	-0.27305764
197	0x3c580975	0.0131858485
198	0xbe5fb527	-0.21846448
199	0xbe24c53f	-0.16090868
200	0x3e3c369c	0.18380207
201	0xbe0e0911	-0.13870646
202	0x3d9bfd69	0.076166935
203	0xbd800054	-0.062500626
204	0xbea25164	-0.3170272
205	0x3bf43869	0.0074530137
206	0x3dbe86dc	0.09303066
207	0xbc3d7a18	-0.011564754
208	0x3ce4c7ec	0.027927361
209	0xbce89aa6	-0.028394055
210	0xbde207b5	-0.11036626
211	0x3dc90f23	0.0981734
212	0x3d3dfaa3	0.046381604
213	0xbdd7dc66	-0.105400845
214	0xbc8f7f1f	-0.01751667
215	0x3dd8cc7d	0.10585878
216	0xbcae4914	-0.02127508
217	0x3c34077d	0.0109881135
218	0x3d361599	0.04445419
219	0x3d4d5de0	0.050138354
220	0x3dca66d6	0.09882896
221	0xbdaa874f	-0.08326589
222	0x3d7fb208	0.062425643
223	0x3c1a376f	0.00941263
224	0xbd404170	-0.046937406
225	0x3c4dca13	0.012560385
226	0x3ce88337	0.02838288
227	0xbe3d3771	-0.1847818
228	0xbe379432	-0.17927626
229	0x3e31e08a	0.17370811
230	0xbd6d9856	-0.058006607
231	0x3e1d2b74	0.15348607
232	0xbb8857f6	-0.0041608764
233	0x3e18edcc	0.14934462
234	0xbc1ddab7	-0.009634665
235	0xbcfb971e	-0.030711707
236	0xbd11f418	-0.035633177
237	0xbe700c16	-0.2344211
238	0x3d09d3c0	0.033649206
239	0x3e5bf446	0.21479902
240	0x3d8ba4e1	0.068185575
241	0xbda46866	-0.08027725
242	0xbe156b14	-0.14591628
243	0xbb1a10b4	-0.002350849
244	0xbda1875c	-0.07887146
245	0x3e039f13	0.12853651
246	0x3de41612	0.11137022
247	0x3da77dee	0.08178316
248	0x3ce831bd	0.02834403
249	0x3dbeba3c	0.09312865
250	0xbdfcd30c	-0.123449415
251	0xb976030c	-0.00023461523
252	0x3de26ebf	0.110562794
253	0xbc0e55d6	-0.008687457
254	0x3d135190	0.035966456
255	0xbcb1db64	-0.021711059

fc2.weight f4 [128, 256]
0	0x3def4c70	0.11684501
1	0xbc708e38	-0.014682345
2	0x3d82515a	0.06363173
3	0x3ca2f49f	0.019892035
4	0x3d490d77	0.049085107
5	0x3d6a8aac	0.057261154
6	0x3c8c98b4	0.017162658
7	0x3cd99d4a	0.02656426
8	0x3c1de18f	0.009636297
9	0xbd4f9419	-0.050678346
10	0xbd3ae8bb	-0.045632105
11	0xbcfd07eb	-0.030887565
12	0x3c89567b	0.01676487
13	0xbd57a345	-0.05264594
14	0x3ccd778c	0.025081418
15	0xbc9825e1	-0.01857275
16	0x3d400251	0.04687721
17	0xbd7dd83f	-0.061973806
18	0x3d298457	0.041385975
19	0x3d4f0166	0.050538443
20	0x3cabfae5	0.02099366
21	0x3d55a025	0.05215468
22	0xbb83291c	-0.0040027034
23	0xbd27ef5f	-0.040999766
24	0xbd45d8a1	-0.048302297
25	0xbd085b5d	-0.033290256
26	0xbdcfe113	-0.101503514
27	0xbc3808bc	-0.011232551
28	0xbbe55cae	-0.0069995737
29	0x3ddbf206	0.10739522
30	0xbca58a71	-0.020207616
31	0xbd52d3de	-0.051471584
32	0xbd39fdff	-0.045408245
33	0xbcf38bbb	-0.029729715
34	0x3ca2cdd6	0.01987354
35	0x3d1c389c	0.038139924
36	0x3c40bfb6	0.011764457
37	0xbcdac70c	-0.026706241
38	0xbe0a233b	-0.13490002
39	0x3cfd7ce6	0.030943345
40	0xbc7ec28e	-0.015549315
41	0x3c184962	0.00929484
42	0x3d22d018	0.039749235
43	0x39ddec84	0.00042328623
44	0xbca4bba8	-0.020109013
45	0x3dea82cd	0.114507295
46	0x3d483b95	0.048884947
47	0xbc93d1a5	-0.018044302
48	0x3ca84696	0.02054147
49	0x3d26099f	0.04053652
50	0xbc846425	-0.016161034
51	0x3cd415f9	0.025889384
52	0xbc71fe96	-0.014770171
53	0xbc91f6da	-0.017817903
54	0xbd59d5fa	-0.05318258
55	0xbd71fbb0	-0.05907792
56	0xbb88ab3c	-0.0041708034
57	0x3c9d7db0	0.019224972
58	0x3de60fe3	0.11233499
59	0x3d1eb03a	0.03874228
60	0xbc23c66f	-0.009996041
61	0xbe23b73b	-0.15987866
62	0xbd2115f6	-0.039327584
63	0xbd40dfa2	-0.047088273
64	0x3ca5982d	0.020214165
65	0x3c5ad17d	0.01335561
66	0x3ca06593	0.019579684
67	0xbc541eb7	-0.012946776
68	0x3bbb54e8	0.0057169087
69	0x3d66a060	0.05630529
70	0x3c8b1aef	0.016980616
71	0x3c90435d	0.017610246
72	0xbce402c5	-0.027833352
73	0x3d0409b3	0.032235812
74	0xba7436c3	-0.00093160215
75	0xbd59161c	-0.0529996
76	0xbc9c9751	-0.019115122
77	0x3c87d6d1	0.016581925
78	0x3caa9c49	0.020826476
79	0xbd6021f7	-0.05471989
80	0xbdb873a7	-0.09006434
81	0xbdaa4a5a	-0.08314963
82	0x3d469ebb	0.04849122
83	0xbcb8f054	-0.022575535
84	0x3d0dae1a	0.034589864
85	0x3d8cd718	0.068769634
86	0xbd8e789c	-0.06956598
87	0x3c81cecd	0.01584568
88	0x3d8b80ff	0.068117134
89	0x3c46a3a5	0.012123977
90	0xbd9973ec	-0.074928135
91	0x3d7265f0	0.059179246
92	0x3d17b33f	0.037036177
93	0x3d7d6f81	0.061873917
94	0xbc2e49ca	-0.01063771
95	0x3caeea37	0.021351917
96	0x3ca72268	0.020402148
97	0x3cac6501	0.021044256
98	0x3badbedd	0.0053022937
99	0x3d43f6d9	0.047842834
100	0xbd0e9263	-0.034807574
101	0xbd6896aa	-0.05678431
102	0x3cf0e212	0.029404674
103	0xbd19b1ae	-0.037522964
104	0x3cf9bbe1	0.030485095
105	0xbd752cbe	-0.059857123
106	0x3b42fc2d	0.002975236
107	0xbc58b78b	-0.013227354
108	0x3dd09dc0	0.101863384
109	0xbd3a236f	-0.04544395
110	0x3c397606	0.011319643
111	0xbc1e25ae	-0.009652538
112	0xbd00a226	-0.031404637
113	0x3d5fd358	0.054644912
114	0xbd4c31e5	-0.04985227
115	0xbcccb33b	-0.024987807
116	0x3ccbb57f	0.024866818
117	0xbc073b91	-0.008253948
118	0xbd12fd1e	-0.035885923
119	0x3c833341	0.01601565
120	0xbcf23abe	-0.029569026
121	0x3d35ebde	0.044414394
122	0xbcdb67e9	-0.026782947
123	0xbc637e91	-0.013885156
124	0xbe1a4e2a	-0.1506888
125	0xbd5ec5d4	-0.054387882
126	0xbd8ea2de	-0.06964658
127	0xbbd20846	-0.0064096777
128	0x3d8df567	0.069315724
129	0xbd6e8885	-0.058235664
130	0x3bdff8ae	0.006835065
131	0xbbbf1c12	-0.0058322037
132	0x3bb963f9	0.0056576696
133	0x3de46abe	0.11153172
134	0xbd0cd5ac	-0.03438346
135	0xbbcae437	-0.006191756
136	0xbc4f969a	-0.012670184
137	0xbb14253f	-0.0022605208
138	0x3d8380de	0.06421064
139	0xbdcb1c8f	-0.099175565
140	0xbd94402c	-0.07238802
141	0xbd90c7ba	-0.07069345
142	0x3b40ec1c	0.0029437607
143	0xbd6f81c9	-0.058473382
144	0x3d9690e1	0.07351852
145	0x3d376538	0.044774264
146	0x3d68a25b	0.05679546
147	0x3d18d2e5	0.0373105
148	0xbbd36168	-0.0064508207
149	0x3b5fc6e7	0.0034145655
150	0xbd09755a	-0.03355918
151	0xbdcc2714	-0.09968391
152	0x3cc87208	0.024468437
153	0xbe084786	-0.13308534
154	0xbbebf31f	-0.007200613
155	0xbc512dd8	-0.012767278
156	0xbd92ad10	-0.07161915
157	0x3b6ce09d	0.0036144622
158	0xbca61902	-0.020275597
159	0x3d2026cd	0.039099503
160	0x39f426b5	0.00046568146
161	0x3dc967f6	0.09834282
162	0xbda0722c	-0.078342766
163	0xbe3eeee5	-0.18645819
164	0x3abfa2ec	0.0014620698
165	0xbe0aefe7	-0.13568078
166	0xbccf1bc3	-0.025281793
167	0x3dd065a5	0.10175637
168	0xbdd38488	-0.10328013
169	0xbda254f4	-0.0792636
170	0x3cdc3d9d	0.026884848
171	0xbb19f293	-0.0023490533
172	0x3dcb2371	0.09918869
173	0x3ce43237	0.027855976
174	0x3c5579ad	0.013029498
175	0x3d0446a6	0.032293938
176	0x3cf115cb	0.029429337
177	0xbd8aa5bd	-0.06769893
178	0x3d788f63	0.06068362
179	0x3db83e5c	0.08996269
180	0xbda3a764	-0.079909116
181	0x3d475b84	0.04867126
182	0xbce966c7	-0.02849139
183	0x3cb109f0	0.021611184
184	0x3c6bee7c	0.014400121
185	0xbd0974b8	-0.033558577
186	0x3d048b4a	0.0323594
187	0xbcda58c5	-0.026653657
188	0xbd188555	-0.03723653
189	0xbbe97ac5	-0.007125231
190	0xbd5286a9	-0.051397953
191	0x3d37a43a	0.044834353
192	0xbd215aeb	-0.039393347
193	0xbc8fe9a3	-0.017567461
194	0x3a1ddebd	0.00060222653
195	0xbd07a9f3	-0.03312106
196	0xbd465b9e	-0.048427217
197	0x3ce43de1	0.027861537
198	0x3b9cb2c8	0.0047820546
199	0xbda11300	-0.07864952
200	0x3d83cd4c	0.06435642
201	0xbcff271c	-0.031146578
202	0x3c6d6b47	0.014490909
203	0x3d63e027	0.05563369
204	0xbaa15327	-0.0012308107
205	0xbc2e3575	-0.010632862
206	0xbcacb135	-0.021080593
207	0xbd5b8f8f	-0.053603705
208	0xbd4272e5	-0.047472853
209	0xbcb69be5	-0.022291133
210	0xbaa81400	-0.0012823343
211	0xbd51d1d8	-0.051225513
212	0x3d69e22b	0.057100456
213	0xbcddea85	-0.027089367
214	0xbbd27586	-0.0064227013
215	0xbe1a0c99	-0.15043868
216	0x3d814f69	0.063139744
217	0x3c282bdf	0.010264366
218	0x3d95c729	0.073133774
219	0x3cf25253	0.02958027
220	0xbd567872	-0.05236096
221	0x3d395626	0.045248173
222	0xbd85ae4d	-0.06527386
223	0xbcc42430	-0.023943037
224	0xbc8d10e9	-0.017219977
225	0xbd422149	-0.047395024
226	0xbb344d7a	-0.0027512
227	0x3c6407e4	0.013917897
228	0x3d9f7a48	0.07786995
229	0x3dac02e3	0.08398988
230	0x3d561c2b	0.052272957
231	0x3d609ef3	0.054839086
232	0x3cad57e9	0.021160083
233	0xbc4acbd3	-0.012377697
234	0xbdc85564	-0.09781912
235	0x3d0b50dd	0.034012664
236	0x3d963cc3	0.07335808
237	0xbc1cac63	-0.009562585
238	0xbdb7fd6d	-0.08983884
239	0x3bb64163	0.005561994
240	0xbcedeecc	-0.029044531
241	0xbd2a7f64	-0.041625395
242	0xbdb2ca55	-0.08729998
243	0x3e0cdefe	0.1375694
244	0x3d14c068	0.036316305
245	0xbd1080a0	-0.035278916
246	0xbcfc28c9	-0.030781167
247	0x3bbc916d	0.005754641
248	0xbdda436f	-0.10657393
249	0xbd20f395	-0.039294798
250	0xbd8eeb6c	-0.06978497
251	0x3cbbb685	0.02291418
252	0x3bfb12a6	0.007662135
253	0x3c92eaea	0.017934281
254	0xbcaaeeea	-0.020865876
255	0x3d63b88e	0.055595927

fc2.bias f4 [128]
0	0x3cc2fe64	0.023802944
1	0xbb6615cc	-0.0035108207
2	0x3d6570f3	0.05601592
3	0x3d59aed3	0.05314524
4	0x3cb4508d	0.022011066
5	0x3c60c531	0.013718889
6	0x3d26ce97	0.040724363
7	0xbc963e8e	-0.018340375
8	0x3bf2d7d8	0.0074109845
9	0x3ba5e45e	0.005062624
10	0x3d37e456	0.044895492
11	0xbd49467f	-0.049139496
12	0x3ce9e8cf	0.028553395
13	0x3c421fad	0.011848372
14	0x3c88a0f0	0.016678303
15	0xbcf2d5ca	-0.029642958
16	0x3d89ac5c	0.06722328
17	0xbdcabf09	-0.09899718
18	0xbd0e1eed	-0.034697462
19	0xbd563946	-0.052300714
20	0x3d502e7f	0.050825592
21	0x3b34c8ac	0.002758543
22	0xbd05f2f2	-0.032702394
23	0x3c9f24f5	0.019426802
24	0x3b6359fe	0.003469109
25	0xbcebf87d	-0.028805012
26	0xbbf24678	-0.0073936544
27	0x3d1e237b	0.038608056
28	0x3ca6c126	0.020355772
29	0xbd1e544b	-0.038654607
30	0x3cf49d4d	0.029860163
31	0xbbf75097	-0.007547449
32	0xbd0e932b	-0.03480832
33	0x3d8c80c4	0.068604976
34	0xbc1cdd0c	-0.009574186
35	0xbc0af391	-0.008480922
36	0x3bbac0d9	0.0056992588
37	0x3c19205c	0.009346094
38	0xbcbebdaa	-0.023283798
39	0xbc8f7574	-0.01751206
40	0xbcf9d8b9	-0.03049885
41	0xbbaaa899	-0.0052080867
42	0xbd6d247f	-0.057896134
43	0x3ca97b20	0.020688593
44	0xbcfaab6e	-0.030599322
45	0x3d00efd1	0.031478707
46	0x3d33a585	0.043859024
47	0x398d339c	0.00026932068
48	0x3d1fca10	0.03901106
49	0xbc3540a3	-0.011062774
50	0xbbfa8311	-0.007645019
51	0xbc86aa55	-0.016438643
52	0x3d6e6964	0.058205977
53	0x3d26f3db	0.040759902
54	0xbd2f9a76	-0.042871915
55	0xbcd50d96	-0.026007455
56	0x3b10e09c	0.0022106534
57	0x3ca6b549	0.020350115
58	0x3cc285ea	0.023745496
59	0x3d569320	0.052386403
60	0x3d51cb0d	0.051219035
61	0xbce60d7e	-0.028082605
62	0xbd7a2d69	-0.061078463
63	0xbc585f4b	-0.013206313
64	0x3b44f301	0.0030052068
65	0x3c0fd609	0.008779057
66	0xbd04e361	-0.032443408
67	0x3cc35006	0.02384187
68	0xbcfcab42	-0.03084338
69	0xbcacd8f4	-0.021099545
70	0x3ced2bba	0.028951515
71	0xbcfd2bf4	-0.030904748
72	0x3d242d66	0.040082358
73	0xbcd8f4eb	-0.026483973
74	0x3dafb37f	0.08579158
75	0xbc2dc244	-0.010605399
76	0x3d32da20	0.04366505
77	0x3b2cbeb3	0.0026358783
78	0xbd4b2c7e	-0.049602978
79	0xbcdb7717	-0.026790185
80	0x3cc4064a	0.02392878
81	0xbc1bc810	-0.009508148
82	0xbca415d3	-0.020029938
83	0x3a8fe010	0.001097681
84	0x3cad7263	0.021172708
85	0x3c816bf5	0.015798548
86	0xbc517ba6	-0.012785828
87	0xbcce5070	-0.02518484
88	0x3ce8a2a2	0.028397862
89	0x3cf440f9	0.029816138
90	0xbd8798a3	-0.0662091
91	0x3d2d206d	0.04226725
92	0x3cd0d8d3	0.025494015
93	0xbbb81e25	-0.005618828
94	0x3c085df0	0.008323178
95	0x3cebfc1d	0.02880674
96	0x3cc20c36	0.023687463
97	0xbd7a8de5	-0.061170477
98	0x3d2ad513	0.04170711
99	0x3cad78e5	0.021175811
100	0x3d74da14	0.059778288
101	0x3d8c4d1a	0.068506435
102	0x3d339b6d	0.043849397
103	0x3d32b87c	0.04363297
104	0xbd3e4813	-0.046455454
105	0x3cc6a913	0.024250543
106	0x3ccdb2dd	0.025109703
107	0xbc5d5c80	-0.013510823
108	0x3d8a9f5b	0.06768676
109	0xbc94be8a	-0.018157262
110	0xbd9dd08b	-0.07705792
111	0x3c5d8b48	0.013521977
112	0x3cb7a94d	0.022419596
113	0x3d8a0427	0.06739073
114	0x3d1b922b	0.037981194
115	0xbd2e4ff5	-0.04255672
116	0xbd6abd7e	-0.05730962
117	0x3cef6640	0.029223561
118	0x3d639f83	0.055572044
119	0xb981049b	-0.0002460823
120	0x3bc6e1ec	0.0060694125
121	0x3d7cef0e	0.061751418
122	0x3d5f8078	0.054565877
123	0xbc7b4e76	-0.015338531
124	0xbca69eb4	-0.020339347
125	0xbc9c4af8	-0.019078717
126	0x3ccdd3cd	0.025125409
127	0xbdc23d28	-0.09484321

fc3.weight f4 [2, 128]
0	0xbd948f68	-0.07253915
1	0x3ddb6980	0.10713482
2	0x3d831fa4	0.06402519
3	0x3d87e32a	0.06635125
4	0x3dad591a	0.084642604
5	0x3d6ca472	0.057774015
6	0xbc7d4e96	-0.015460631
7	0xbe375b9d	-0.17906041
8	0xbd1141af	-0.03546303
9	0xbdac7fd3	-0.08422818
10	0xbdc59016	-0.09646623
11	0x3daa683a	0.08320661
12	0xbe0c4163	-0.13696818
13	0x3ce20e20	0.027594626
14	0xbd10d40c	-0.035358474
15	0xbd294bc8	-0.041332036
16	0x3d58ce7b	0.05293129
17	0xbc096248	-0.0083852485
18	0xbd98db4c	-0.074637026
19	0x3e28c855	0.1648267
20	0xbdd07a22	-0.10179545
21	0x3d602148	0.05471924
22	0xbdf08168	-0.11743432
23	0x3be9cdfa	0.00713515
24	0xbc97a567	-0.018511487
25	0x3d0112ca	0.03151206
26	0x3e2035f4	0.15645581
27	0x3e06f57a	0.1317958
28	0xbd9faeed	-0.07797036
29	0xbe144d8d	-0.14482708
30	0x3da969a3	0.08272102
31	0x3d007b3c	0.031367525
32	0xbcb1e14e	-0.021713879
33	0xbe6bd63f	-0.23030947
34	0xbdeca83b	-0.11555525
35	0xbd44e9fb	-0.048074704
36	0xbe6d8935	-0.23196872
37	0xbd284b60	-0.04108751
38	0x3da97cdd	0.08275769
39	0x3d9fe844	0.07807973
40	0x3da073c2	0.07834579
41	0xbe1fbecc	-0.15600127
42	0xbe44632c	-0.19178456
43	0x3da94dc3	0.08266785
44	0xbe075e42	-0.1321955
45	0x3c926966	0.017872524
46	0xbc34ffe2	-0.011047335
47	0xbc375ea9	-0.011192002
48	0x3d1ff5c6	0.039052747
49	0xbc8c95b6	-0.017161231
50	0xbdbecc1c	-0.093162745
51	0xbe20a2ca	-0.15687099
52	0xbdb21a0f	-0.086963765
53	0x38e626d8	0.0001097449
54	0xbda08493	-0.078377865
55	0xbe17a354	-0.14808398
56	0x3d844882	0.06459142
57	0xbc47d3e6	-0.012196517
58	0x3d918a89	0.071065016
59	0x3dca2ba7	0.09871607
60	0xbe53b36b	-0.20673911
61	0xbd9d7cbf	-0.07689809
62	0xbd91ba8c	-0.07115659
63	0xbd662faf	-0.05619782
64	0x3c89ccd7	0.016821308
65	0xbdd537c7	-0.10411029
66	0xbe243083	-0.16034131
67	0x3d6b1335	0.057391364
68	0x3dd8a6ef	0.10578715
69	0x3db12e78	0.08651441
70	0xbd992fab	-0.07479795
71	0x3dbce781	0.09223843
72	0xbda1ab56	-0.07894008
73	0xbdbbe97f	-0.09175395
74	0xbcb35c41	-0.021894576
75	0xbde2ef3d	-0.11080787
76	0xbd477f05	-0.04870512
77	0x3e20e5ed	0.1571271
78	0xbe36f0ba	-0.17865267
79	0x3d7bbf8c	0.06146197
80	0xbdaae4c3	-0.08344414
81	0x3d8c7abe	0.06859349
82	0xbe4beec8	-0.19915307
83	0x3d8bbffa	0.06823726
84	0x3dcbab7b	0.09944817
85	0xbd5361e1	-0.051607016
86	0xbe2b40b1	-0.16723897
87	0xbdf1855d	-0.11793015
88	0x3dd8cf96	0.10586469
89	0x3d01be5b	0.031675678
90	0xbe5a21ec	-0.21302003
91	0xbe0c8e6d	-0.13726206
92	0x3d683df8	0.056699723
93	0x3df553d3	0.11978879
94	0x3d91e3bb	0.07123514
95	0xbdac0a85	-0.08400444
96	0xbe52d2e5	-0.20588262
97	0xbd9c27f0	-0.07624805
98	0x3d999c0b	0.07500466
99	0xbdabb80b	-0.08384713
100	0x3d636559	0.055516575
101	0x3d73b380	0.059497356
102	0x3db82c1a	0.08992787
103	0x3c3c71e0	0.011501759
104	0x3c2964c5	0.010338967
105	0xbcb59f68	-0.022170737
106	0x3dbc17b1	0.09184206
107	0x39c54a59	0.0003763016
108	0xbe0da53d	-0.13832565
109	0x3b51d268	0.003201628
110	0xbd45f4dc	-0.04832922
111	0xbe68cf19	-0.22735251
112	0xbe36c56f	-0.17848752
113	0xbdddfea8	-0.108395875
114	0xbde7a54b	-0.11310824
115	0xbdfb6de9	-0.12276823
116	0x3d98a4e6	0.07453327
117	0xbd92f1ab	-0.07175001
118	0xbdef3c4f	-0.11681425
119	0x3e1092e1	0.1411853
120	0xbe0d0d9c	-0.13774723
121	0x3db9edef	0.09078585
122	0x3dce0a4a	0.10060556
123	0xbdecad14	-0.115564495
124	0xbe1549b2	-0.14578894
125	0xbdb90625	-0.09034375
126	0x3d46c706	0.048529647
127	0xbd29a2ea	-0.041415133
128	0x3db5120c	0.08841333
129	0xbd30d519	-0.043171976
130	0x3df3d9b4	0.11906758
131	0x3df87617	0.12131899
132	0x3e653ffc	0.2238769
133	0xbdf6ab9b	-0.1204445
134	0xbd7ba5f8	-0.061437577
135	0xbd2a89fb	-0.041635495
136	0xbe11f74e	-0.14254496
137	0xbe15352c	-0.14571065
138	0x3e758818	0.23977697
139	0x3d9d02f6	0.076665804
140	0x3e612f40	0.2199068
141	0x3e023150	0.12714124
142	0xbe0d0e32	-0.13774946
143	0xbe4b233d	-0.19837661
144	0x3dad8d34	0.08474198
145	0xbe90e72f	-0.2830138
146	0xbe6ab2be	-0.22919747
147	0xbc235994	-0.009970088
148	0x3d98b606	0.07456593
149	0x3e0e5565	0.13899763
150	0x3c4735c8	0.012158819
151	0xbda04d64	-0.07827261
152	0x3e0118a3	0.12607054
153	0x3db9f430	0.09079778
154	0x3cc46d70	0.023977965
155	0x3d8912d5	0.06693045
156	0xbe3ae721	-0.18252231
157	0x3d231400	0.039813995
158	0x3c871d93	0.016493594
159	0xbd7d8adc	-0.061900005
160	0xbdd463c5	-0.10370592
161	0xbccf577a	-0.025310267
162	0xbd8b7188	-0.06808764
163	0x3e697855	0.2279981
164	0xbd6faed3	-0.058516335
165	0x3e467356	0.19379935
166	0xbd4a54a1	-0.049397115
167	0x3d7fef0f	0.062483843
168	0x3db3eefe	0.087858185
169	0xbcc20859	-0.023685621
170	0x3da127e0	0.07868934
171	0xbda0464c	-0.07825908
172	0xbde0a829	-0.10969574
173	0xbca74c9d	-0.020422274
174	0x3e6ac5a2	0.22926953
175	0x3e03710a	0.1283609
176	0x3d71ade9	0.059003744
177	0x3e25a6bd	0.16176887
178	0xbd872cc4	-0.06600335
179	0xbdd2399f	-0.102648966
180	0xbd9d9507	-0.0769444
181	0x3e82a333	0.25515136
182	0xbdc5c90e	-0.09657489
183	0x3dff7b04	0.12474635
184	0xbd94fb68	-0.072745144
185	0xbda98f5d	-0.082792975
186	0x3de12423	0.10993221
187	0x3de26033	0.11053505
188	0x3d28edb7	0.041242328
189	0x3e252fa3	0.16131453
190	0x3e3102cd	0.17286225
191	0x3dfc468c	0.12318143
192	0x3e888f02	0.26671606
193	0xbdd36048	-0.103210986
194	0x3d4df581	0.05028296
195	0x3da515a4	0.08060768
196	0xbd77ad7c	-0.060468182
197	0x3d6ae963	0.05735148
198	0xbd618d8b	-0.055066627
199	0x3d3ab9ea	0.045587458
200	0x3daaa1d8	0.083316505
201	0x3e116f7e	0.14202687
202	0x3e25780b	0.16159074
203	0x3d30090a	0.04297737
204	0xbd9f91e0	-0.07791495
205	0xbdd1c070	-0.10241783
206	0x3ce93f7d	0.028472656
207	0x3dea9e27	0.114559464
208	0xbdd76020	-0.10516381
209	0x3e5d2002	0.21594241
210	0xbd26a64e	-0.040685944
211	0xbd3ff17a	-0.04686115
212	0x3d900546	0.07032256
213	0xbda5b7bf	-0.080916874
214	0x3df528b8	0.11970657
215	0xbe1627c2	-0.14663604
216	0x3d7fbc99	0.06243572
217	0xbcb0049c	-0.021486573
218	0xbcd288c4	-0.02569998
219	0xbe3953b5	-0.18098338
220	0xbde5f70f	-0.11228763
221	0x3defae52	0.11703171
222	0x3e1d838e	0.15382215
223	0xbdc42ea5	-0.09579209
224	0xbdd2111d	-0.1025717
225	0x3e1bd1fc	0.15216821
226	0x3d50c997	0.0509735
227	0xbdcec897	-0.10096853
228	0xbd82a2ae	-0.06378685
229	0x3e35daae	0.17759201
230	0x3e3de338	0.18543708
231	0xbd6f72ec	-0.058459207
232	0xbe374903	-0.17898946
233	0xbd47cb87	-0.048778083
234	0x3e03f758	0.12887323
235	0x3e4ec195	0.20191033
236	0x3dee140e	0.11624919
237	0xbdb9551f	-0.09049439
238	0xbde7273c	-0.1128678
239	0xbd9c6bcc	-0.07637748
240	0xbd4e1c01	-0.050319675
241	0xbdc7da73	-0.09758463
242	0xbd689531	-0.056782905
243	0xbda1521e	-0.07876991
244	0x3db04563	0.086069845
245	0x3e0b36f2	0.13595179
246	0x3d9801c4	0.07422212
247	0xbd7ccdf1	-0.06171984
248	0xbe47d474	-0.19514638
249	0xbdcdaf74	-0.10043231
250	0x3dbc0f07	0.09182554
251	0xbdf07063	-0.11740186
252	0x3df88222	0.12134196
253	0x3e0423bd	0.12904258
254	0x3c7c8562	0.01541266
255	0xbdddc63d	-0.108288266

fc3.bias f4 [2]
0	0xbd870765	-0.06593207
1	0xba362cff	-0.0006949454
