p2_continuous-control/checkpoint_actor.pth (torch_old, 169478 bytes, 6 tensors)

fc1.weight f4 [256, 33]
-0.07739613 -0.090941966 -0.016449124 0.044653907 0.025099097 0.028910562 -0.025019864 -0.03861581
-0.27494684 -0.06328117 0.050480608 -0.051725548 0.021971995 0.21887934 0.008688571 0.059945986
0.115656435 -0.14389515 0.10621204 0.024503864 -0.29624215 -0.061544824 0.066713996 0.22162771
0.03484915 -0.010950004 -0.04225352 -0.116687335 -0.07138336 -0.08457281 -0.13892087 -0.11297332
-0.029838044 -0.1031605 -0.080379814 -0.22662292 0.080272734 0.090680785 0.17268765 -0.092920765
-0.06133949 -0.18988098 -0.024251252 0.14661992 -0.09137784 0.0027082795 -0.023608778 -0.12629035
0.06339032 -0.026077436 0.039156597 0.1121243 0.06412673 0.13692649 -0.19026776 0.11399068
0.044174176 -0.07934892 0.05088998 0.22340812 0.11592469 -0.14565174 0.050923318 0.1396312
0.15462342 1.0581237 0.13743967 -0.33029014 -0.07215167 0.033832528 -0.14296784 0.0009809023
-0.124619305 0.092170276 -0.22551909 0.053993512 0.048783977 -0.006119832 0.07223608 -0.11459772
0.32620573 0.07440232 -0.07871547 0.035307378 -0.036525268 0.06313675 -0.18321306 0.03129081
-0.18684852 0.054642666 0.051578168 0.036782984 0.18537693 0.021919351 0.16890956 0.09319347
-0.14183478 -0.1085016 0.21711199 -0.03276155 -0.055701833 -0.014142591 -0.08193475 0.29741442
0.025375493 -0.02681325 0.061205473 0.063109756 -0.3425955 -0.0003029945 0.031679302 -0.21664679
-0.12255678 -0.117023095 -0.30930832 -0.116908826 0.060561486 0.17244354 0.106930435 0.021557666
-0.19711171 0.21703522 -0.28390855 0.0041906266 -0.007921968 -0.10554965 -0.058437858 0.22237174
-0.16922177 -0.15620796 -0.11798258 0.065489896 -0.21147072 0.13310598 -0.11105768 -0.06341885
0.039165907 -0.073899455 0.045490652 0.09783852 -0.1766852 0.016847102 0.19587506 0.14664328
-0.16013844 0.08736484 -0.37886196 0.07918572 0.1297511 -0.03143535 -0.02635786 0.017141208
-0.18358912 -0.19868718 -0.18571188 -0.008875706 -0.19807313 0.14137574 0.0790853 0.1576872
-0.15829234 0.12006968 -0.08107101 -0.17009889 0.85487664 -0.06346205 -0.12247021 0.34835142
-0.04671776 -0.21368413 -0.11462809 -0.13885625 0.17919092 -0.011603852 -0.31064665 -0.03975429
-0.09225318 0.1524348 0.12192642 0.21567135 0.017363584 0.022461044 0.011197335 0.0267722
-0.028715996 -0.15088905 -0.052444957 -0.017494382 0.041023258 -0.013112144 0.07044464 -0.32953155
0.07347498 0.05424959 -0.055976726 -0.04435993 0.049488828 -0.83376 -0.07637008 0.17340885
-0.13247739 -0.07762905 -0.039924808 -0.08103976 0.015966844 -0.051637944 0.2111706 -0.23258215
-0.26267093 -0.07082053 -0.080728464 -0.09432186 0.21436162 -0.1357396 -0.0644988 0.026455017
-0.043812 0.13084434 -0.06842725 0.06405292 0.17682946 -0.009507058 0.30395052 -0.1017044
0.012931891 -0.00909535 -0.05381386 0.15179321 0.02139996 -0.08951903 -0.06786124 -0.052241698
-0.19800933 0.072106175 -0.059985824 -0.13135368 -0.04844716 -0.07023649 -0.05515922 -0.11210684
-0.0018569431 0.27758405 -0.4319694 -0.038978346 0.099523924 -0.18704672 -0.04334212 0.13877004
-0.008213799 -0.0657215 0.050456762 0.020391915 0.08635742 -0.19329397 0.05743676 -0.020488828
00000000: dd81 9ebd c83f babd 50c0 86bc 04e7 363d
00000010: 9f9c cd3c d8d5 ec3c 75f6 ccbc 9d2b 1ebd
00000020: d5c5 8cbe 8f99 81bd c1c4 4e3d 2bde 53bd
00000030: 9dfe b33c e821 603e 825a 0e3c ec89 753d
00000040: 48dd ec3d 4059 13be b385 d93d 54bc c83c
00000050: 0dad 97be 6d16 7cbd 59a1 883d 60f2 623e
00000060: fbbd 0e3d a567 33bc 0712 2dbd c5f9 eebd
00000070: 7031 92bd 8234 adbd 4641 0ebe 8e5e e7bd
00000080: ea6e f4bc d045 d3bd 2c9e a4bd d70f 68be
00000090: 0866 a43d d9b6 b93d 08d5 303e 3e4d bebd
000000a0: 1e3f 7bbd 2970 42be 90aa c6bc 8823 163e
000000b0: 4e24 bbbd 647d 313b 3267 c1bc 4252 01be
000000c0: c9d2 813d 59a0 d5bc ab62 203d 6da1 e53d
000000d0: e054 833d 7536 0c3e 8dd5 42be f273 e93d
000000e0: fbef 343d b081 a2bd 0372 503d 19c5 643e
000000f0: ed69 ed3d bb25 15be f894 503d 7bfb 0e3e
00000100: 9a55 1e3e 9970 873f fcbc 0c3e ca1b a9be
00000110: 41c4 93bd fa93 0a3d 2966 12be 9f91 803a
00000120: 6838 ffbd c5c3 bc3d 7aee 66be 4d28 5d3d
00000130: b5d1 473d df88 c8bb 83f0 933d 36b2 eabd
00000140: 7004 a73e 3e60 983d 9435 a1bd 789e 103d
00000150: 859b 15bd d74d 813d 349c 3bbe cb2a 003d
00000160: 3855 3fbe fdd0 5f3d a143 533d c1a9 163d
00000170: 73d3 3d3e 3690 b33c a1f6 2c3e 38dc be3d
00000180: 233d 11be 1636 debd 9b52 5e3e fa30 06bd
00000190: 9b27 64bd 53b6 67bc 68cd a7bd b446 983e
000001a0: 44e0 cf3c 76a7 dbbc 97b2 7a3d b03f 813d
000001b0: ad68 afbe 3cdb 9eb9 28c2 013d a8d8 5dbe
000001c0: 0dff fabd cea9 efbd a95d 9ebe e56d efbd
000001d0: 520f 783d 0a95 303e 58fe da3d b499 b03c
000001e0: a7d7 49be 7b3e 5e3e 765c 91be 8651 893b
000001f0: 24cb 01bc 6a2a d8bd 895c 6fbd 6bb5 633e
00000200: 7948 2dbe fbf4 1fbe daa0 f1bd 911f 863d
00000210: c88b 58be ef4c 083e 3572 e3bd bee1 81bd
00000220: 6e6c 203d 9958 97bd 6854 3a3d 905f c83d
00000230: f7ec 34be ef02 8a3c 7993 483e a829 163e
00000240: 55fb 23be 56ec b23d 32fa c1be 1f2c a23d
00000250: 79dd 043e 5bc2 00bd 70ec d7bc b86b 8c3c
00000260: c9fe 3bbe a774 4bbe 412b 3ebe 696b 11bc
00000270: afd3 4abe cdc4 103e 79f7 a13d c178 213e
00000280: 6317 22be 18e7 f53d 8f08 a6bd 672e 2ebe
00000290: 32d9 5a3f 64f8 81bd a9d1 fabd 1e5b b23e
000002a0: 1f5b 3fbd 03d0 5abe 22c2 eabd 5530 0ebe
000002b0: d37d 373e 151e 3ebc 140d 9fbe 65d5 22bd
000002c0: 3cef bcbd de17 1c3e 8fb4 f93d f3d8 5c3e
000002d0: 133e 8e3c 3900 b83c 0775 373c 5f51 db3c
000002e0: cf3d ebbc a982 1abe 86d0 56bd 6150 8fbc
000002f0: 0108 283d 51d4 56bc 4845 903d 5cb8 a8be
00000300: 0d7a 963d d134 5e3d da47 65bd c2b2 35bd
00000310: ccb4 4a3d 4c71 55bf eb67 9cbd 1792 313e
00000320: 27a8 07be fbfb 9ebd 3288 23bd 2cf8 a5bd
00000330: e6cc 823c 4f82 53bd 1b3d 583e 042a 6ebe
00000340: ce7c 86be 5b0a 91bd f754 a5bd d22b c1bd
00000350: 9d81 5b3e 52ff 0abe f217 84bd 31b8 d83c
00000360: 3674 33bd 0ffc 053e 9623 8cbd 2d2e 833d
00000370: c812 353e 7ec3 1bbc 679f 9b3e 654a d0bd
00000380: 48e0 533c aa04 15bc ec6b 5cbd ae6f 1b3e
00000390: f84e af3c c155 b7bd d5fa 8abd 64fb 55bd
000003a0: f5c2 4abe 67ac 933d b2b3 75bd 9481 06be
000003b0: 8770 46bd 26d8 8fbd a2ee 61bd 4598 e5bd
000003c0: ac64 f3ba 7f1f 8e3e 182b ddbe c2a7 1fbd
000003d0: 33d3 cb3d 2d89 3fbe 8287 31bd bc19 0e3e
000003e0: 2c93 06bc fe98 86bd c0ab 4e3d f20c a73c
000003f0: 29dc b03d dbee 45be cf42 6b3d 30d8 a7bc

fc1.bias f4 [256]
-0.009147076 -0.1189932 0.12777713 -0.05702675 -0.018489487 0.03360793 -0.24217264 0.0138339205
-0.12933892 0.093889184 -0.079197384 -0.044536095 -0.08673688 0.20444883 0.1739383 0.11441999
0.003828136 0.04587383 0.044050973 0.0047034305 0.14605042 -0.094616994 0.010582123 0.04399309
-0.083171755 0.061850354 0.14158902 -0.046066113 -0.0010835356 -0.073187016 -0.16628373 -0.059679862
0.10419655 -0.12315878 -0.16796264 0.22311157 -0.05695877 -0.07823057 0.051713534 0.17808221
-0.060178004 -0.062601194 -0.0024827756 0.027747793 0.017113015 -0.02790898 0.118964 0.03958674
0.025560174 0.0908641 -0.023054304 0.13317415 -0.008764746 0.013788766 -0.11020866 0.090394236
-0.14082317 0.008917227 -0.18333556 0.13867159 -0.02350999 -0.003190275 -0.108292975 0.039189126
0.10905407 -0.13231449 0.23632081 0.020792412 0.031752594 -0.109553315 0.18451537 -0.21201114
-0.20308875 0.16943023 0.09068192 0.30029666 -0.09491496 -0.006502035 -0.10886011 -0.05446217
-0.017896835 0.09553573 -0.10422194 -0.035669688 0.10620921 -0.0145597905 -0.23362002 -0.11324322
-0.08037066 -0.047596343 -0.021459434 0.048008963 0.1705771 0.09537262 -0.1333935 -0.025373071
-0.070325606 -0.0726262 -0.046167705 0.02129947 0.07461627 0.023910118 -0.15854244 -0.0032784748
0.070753515 0.031952813 -0.22086708 0.066079915 0.06519404 0.015026121 0.25891182 0.0011436217
-0.16818942 -0.12726653 0.07711385 0.025643876 -0.024204895 0.056552812 0.055702265 -0.17703031
0.13008548 -0.074439496 -0.041798096 -0.078822196 0.109255806 0.050985344 -0.11706465 -0.15262796
-0.0013991962 -0.04096483 -0.0364895 -0.2600384 0.14171644 -0.0044368273 -0.117778584 0.011064228
-0.06101407 -0.29168376 -0.15284216 -0.028917214 0.083377935 0.004999145 0.24436857 -0.043673765
-0.104587734 -0.14726351 -0.15372469 0.15724988 0.20343865 -0.18727542 -0.124068156 -0.05708648
0.06585066 -0.09490261 -0.028169323 -0.12239898 -0.14426129 -0.16739349 -0.012604223 -0.22133814
-0.16389552 -0.066897795 0.1170798 0.13548143 0.14372078 -0.15098956 -0.30606303 -0.11241835
-0.061561618 -0.04326594 0.19921531 0.2591713 -0.08197176 0.11992079 -0.028904278 0.06445035
-0.20459457 -0.055005364 -0.011243813 0.05947704 -0.14328274 0.029978458 0.059775177 -0.04421951
-0.011576677 0.026777329 0.10932078 -0.11779029 -0.093079254 0.26632518 -0.14521158 -0.03382658
0.16730723 0.046942614 -0.067411095 -0.065657474 0.11399849 0.2353524 0.032907326 0.1364935
0.14154565 -0.052973285 0.07312591 0.26325056 0.0426137 -0.05200986 -0.21877542 -0.26437184
0.034894608 0.013211436 -0.050447937 -0.034383677 0.00087879435 0.14554033 -0.100083545 -0.11180444
-0.076135784 -0.12193609 0.034276597 0.1409788 0.046483707 -0.21607672 0.018297974 -0.18303628
0.18899316 -0.0905142 -0.020469757 -0.21902479 -0.15581594 0.09836502 0.19290017 -0.17542286
-0.08752517 0.00060661114 -0.066190265 -0.060881354 0.0590528 0.027948968 -0.15372223 0.14114222
-0.070260115 -0.027086623 -0.06829472 0.15646385 0.043985948 -0.018889608 0.10394725 0.09122501
0.051142626 0.110238574 -0.099818364 0.12434497 -0.21155241 0.10882609 -0.106428966 -0.09757109
00000000: 9edd 15bc b5b2 f3bd 02d8 023e e294 69bd
00000010: 4477 97bc 78a8 093d 1bfc 77be aba7 623c
00000020: 6c71 04be f948 c03d 3d32 a2bd 7b6b 36bd
00000030: 1ba3 b1bd 095b 513e e21c 323e 0755 ea3d
00000040: 77e1 7a3b 32e6 3b3d cb6e 343d 3c1f 9a3b
00000050: 3e8e 153e 8ec6 c1bd a460 2d3c 1932 343d
00000060: f455 aabd cc56 7d3d b6fc 103e d2af 3cbd
00000070: 6c05 8eba 13e3 95bd 4846 2abe df72 74bd
00000080: 0065 d53d ac3a fcbd 66fe 2bbe 5c77 643e
00000090: 994d 69bd 5937 a0bd 92d1 533d 2f5b 363e
000000a0: 367d 76bd 0e35 80bd 10b6 22bb 574f e33c
000000b0: 9830 8c3c 60a1 e4bc 66a3 f33d b525 223d
000000c0: 9263 d13c f516 ba3d 61dc bcbc ce5e 083e
000000d0: 029a 0fbc 47ea 613c 14b5 e1bd 9d20 b93d
000000e0: f333 10be 9019 123c 51bc 3bbe edff 0d3e
000000f0: 0698 c0bc ef13 51bb b5c8 ddbd c784 203d
00000100: be57 df3d 737d 07be 15fe 713e d954 aa3c
00000110: 020f 023d 7d5d e0bd 99f1 3c3e 7319 59be
00000120: 7ff6 4fbe 1e7f 2d3e 71b7 b93d 7cc0 993e
00000130: c662 c2bd 060f d5bb 0df2 debd b913 5fbd
00000140: 629c 92bc 3da8 c33d 5072 d5bd 611a 12bd
00000150: 3784 d93d 308c 6ebc 163a 6fbe 10ec e7bd
00000160: 5f99 a4bd 62f4 42bd b2cb afbc 0ca5 443d
00000170: c3ab 2e3e b852 c33d 4e98 08be 30db cfbc
00000180: df06 90bd 0cbd 94bd 591a 3dbd 3a7c ae3c
00000190: 6ad0 983d 27df c33c f358 22be aedb 56bb
000001a0: 38e7 903d f4e0 023d fb2a 62be e854 873d
000001b0: 7484 853d 1f30 763c 1790 843e 94e5 953a
000001c0: d939 2cbe 2852 02be deed 9d3d 1b13 d23c
000001d0: 5849 c6bc eca3 673d 0f28 643d 6f47 35be
000001e0: 2135 053e bc73 98bd 7b34 2bbd 886d a1bd
000001f0: 82c1 df3d 02d6 503d 97bf efbd 814a 1cbe
00000200: 3c65 b7ba bdca 27bd 0476 15bd c123 85be
00000210: 1d1e 113e ce62 91bb e635 f1bd bc46 353c
00000220: e4e9 79bd 9357 95be a882 1cbe cbe3 ecbc
00000230: 0dc2 aa3d decf a33b c13b 7a3e 43e3 32bd
00000240: 1832 d6bd 3fcc 16be 016a 1dbe 1d06 213e
00000250: 3952 503e 21c5 3fbe 7217 febd 83d3 69bd
00000260: b6dc 863d 4d5c c2bd 5ac3 e6bc 51ac fabd
00000270: 3bb9 13be 3369 2bbe f181 4ebc 77a6 62be
00000280: 3ad4 27be b601 89bd 89c7 ef3d a5bb 0a3e
00000290: 8a2b 133e 029d 1abe 4bb4 9cbe 983b e6bd
000002a0: 0928 7cbd a037 31bd 19ff 4b3e 1ab2 843e
000002b0: cfe0 a7bd 0899 f53d aac8 ecbc 8cfe 833d
000002c0: 3d81 51be 4e4d 61bd f837 38bc 329e 733d
000002d0: b6b8 12be 6295 f53c d1d6 743d 841f 35bd
000002e0: 1aac 3dbc 215c db3c 93e3 df3d 093c f1bd
000002f0: 56a0 bebd c65b 883e 58b2 14be bd8d 0abd
00000300: 9652 2b3e e646 403d d40e 8abd 6d77 86bd
00000310: 0a78 e93d 3800 713e d5c9 063d f4c4 0b3e
00000320: 58f1 103e 84fa 58bd 09c3 953d c7c8 863e
00000330: b48b 2e3d 4a08 55bd aa06 60be bf5b 87be
00000340: a6ed 0e3d c774 583c 7fa2 4ebd e6d5 0cbd
00000350: e45e 663a 8608 153e 9af8 ccbd baf9 e4bd
00000360: 14ed 9bbd a1b9 f9bd 9e65 0c3d bf5c 103e
00000370: b365 3e3d 3743 5dbe a2e5 953c dd6d 3bbe
00000380: 6c87 413e 825f b9bd 31b0 a7bc 0948 60be
00000390: 378e 1fbe 9973 c93d 9f87 453e 0da2 33be
000003a0: 6540 b3bd fc04 1f3a c38e 87bd ba5e 79bd
000003b0: 59e1 713d 3cf5 e43c 5c69 1dbe 9687 103e
000003c0: 89e4 8fbd c4e4 ddbc 1ade 8bbd 0f38 203e
000003d0: 9c2a 343d 61be 9abc 4ce2 d43d 2ed4 ba3d
000003e0: ee7a 513d c3c4 e13d 926d ccbd 93a8 fe3d
000003f0: 32a1 58be 37e0 de3d 6ef7 d9bd 5ad3 c7bd

fc2.weight f4 [128, 256]
0.03152982 0.21472622 -0.234374 0.090033606 0.08899598 -0.07831173 0.13818844 -0.00784001
-0.16696258 0.0610461 -0.08147033 -0.10879718 -0.06890649 -0.12471903 0.17392783 -0.36432156
0.12385947 0.0088996 -0.32220557 -0.15710557 0.2087579 0.016954595 0.052847955 0.0710085
-0.021542264 0.027944168 -0.16198887 -0.23637345 -0.08152815 0.14002351 -0.02795888 0.16095099
-0.21514377 0.06684472 0.15746532 -0.2747614 -0.16349274 0.041794993 0.03914359 -0.21100324
-0.05266086 -0.35908705 -0.053239983 -0.15138984 -0.18095131 -0.15707721 -0.24167818 -0.14770433
-0.04908078 -0.20332177 -0.08582845 -0.15632746 -0.03969442 -0.1099959 -0.0022760625 -0.18220754
0.14085887 -0.15965338 0.11682639 0.05533343 0.039603103 -0.0780434 -0.20609562 0.11885033
-0.01775112 -0.07550568 -0.0071895584 0.06999827 -0.011927222 0.019175673 -0.22348832 0.13690417
-0.25942925 -0.045281235 0.020454615 0.19881713 0.27694282 -0.28605953 0.029724568 -0.09601319
-0.26657185 -0.046748187 0.31605726 0.098513804 0.106182225 0.12056712 -0.048756957 0.0034300059
-0.38860086 -0.033763267 -0.032459587 -0.14367457 -0.23815505 0.034843177 -0.04951507 0.005646321
-0.100615 0.013087704 -0.0522914 -0.094054595 0.03961164 -0.13025422 -0.1005381 -0.044702206
-0.1621133 -0.16738738 0.083353974 0.0394672 0.016270783 0.05498158 0.0043164357 0.098777264
0.06424571 -0.28908783 0.03570037 -0.04209505 -0.078096926 -0.0026033304 -0.04437852 -0.14681606
0.17244759 0.10049508 -0.093988955 -0.013240891 0.10590215 0.20763479 0.060614362 -0.09355711
0.15040632 0.011639104 -0.3452206 -0.001578419 -0.11656144 0.1395212 -0.021021727 -0.049822833
0.100408584 -0.03293816 -0.005469326 0.020729719 0.1317225 -0.29370782 -0.070910655 -0.1548647
0.20212668 0.14848197 0.065528356 -0.044762358 0.23301755 -0.41095728 -0.07006186 -0.12137721
-0.058760636 0.21891312 0.05804717 -0.02995679 0.21355163 0.24925904 0.11167856 0.14709648
0.025968688 -0.052160565 -0.2943017 0.034942787 -0.18157333 0.06546443 0.116160706 0.028693233
0.0014189553 0.04014448 0.019225752 -0.10006638 0.08494023 -0.14608596 -0.020599563 0.09030907
0.099781655 0.045564674 0.14608276 0.19193067 -0.01244985 -0.0026938338 -0.15032136 0.07408251
0.08713868 0.075179726 -0.19602409 -0.04924005 -0.22541709 0.027976766 -0.3009959 0.110779785
-0.24629414 -0.030702371 0.039954588 0.056350768 0.006143346 -0.0417588 -0.017406175 -0.04342759
0.05097008 -0.008670755 -0.3108344 0.047123 -0.03915784 0.04795991 0.057872165 -0.01698063
-0.029805828 0.0609082 0.096784174 -0.014173409 0.28085622 -0.061036862 0.06643958 0.12640381
0.018354068 -0.06388855 -0.16495062 -0.063344955 0.1154218 -0.05340099 -0.06443685 -0.0886081
-0.2902126 0.008576394 0.01093373 -0.013685036 -0.049908925 -0.02143124 0.16268878 0.02931354
-0.21858655 -0.08531072 -0.13124065 0.11654684 -0.04148374 -0.13125439 0.029787004 -0.06625329
-0.22474532 -0.022402039 -0.12108493 -0.084901 -0.09007153 -0.27292386 0.14914535 -0.06321878
-0.19457589 -0.05324474 -0.2331715 0.106373906 -0.0344616 0.04365529 -0.09024782 0.14003257
00000000: 6a25 013d 31e1 5b3e bdff 6fbe 8a63 b83d
00000010: 8643 b63d e661 a0bd 4581 0d3e 6373 00bc
00000020: 3df8 2abe 7a0b 7a3d ebd9 a6bd 0ed1 debd
00000030: d91e 8dbd b16c ffbd 231a 323e 5b88 babe
00000040: 09aa fd3d a1cf 113c 21f8 a4be 48e0 20be
00000050: a2c4 553e 5de4 8a3c 1977 583d e86c 913d
00000060: 6779 b0bc 2beb e43c 69e0 25be e20b 72be
00000070: 3bf8 a6bd 5362 0f3e 050a e5bc 56d0 243e
00000080: a64e 5cbe e2e5 883d 973e 213e 87ad 8cbe
00000090: a46a 27be 3a31 2b3d 0755 203d 3c11 58be
000000a0: eab2 57bd 42da b7be 2b12 5abd f005 1bbe
000000b0: 4d4b 39be d9d8 20be 7c7a 77be ce3f 17be
000000c0: ee08 49bd 9533 50be d4c6 afbd 4e14 20be
000000d0: 9e96 22bd 8845 e1bd fe29 15bb 9d94 3abe
000000e0: 4f3d 103e 2d7c 23be ad42 ef3d 4fa5 623d
000000f0: dd36 223d 38d5 9fbd bb0a 53be cd67 f33d
00000100: cc6a 91bc b9a2 9abd 6396 ebbb 415b 8f3d
00000110: 656a 43bc 4d16 9d3c 1fda 64be 9b30 0c3e
00000120: e9d3 84be d178 39bd 7090 a73c b896 4b3e
00000130: 73cb 8d3e 6576 92be f080 f33c 90a2 c4bd
00000140: 1b7c 88be 077b 3fbd 42d2 a13e 9bc1 c93d
00000150: 1176 d93d e5eb f63d 60b5 47bd f3c9 603b
00000160: b1f6 c6be 5a4b 0abd 58f4 04bd 6d1f 13be
00000170: ebde 73be b8b7 0e3d 50d0 4abd c604 b93b
00000180: 3d0f cebd cf6d 563c 822f 56bd b29f c0bd
00000190: d13f 223d 5d61 05be ebe6 cdbd a919 37bd
000001a0: 0701 26be 9967 2bbe 7db5 aa3d 5ca8 213d
000001b0: 4e4a 853c 5d34 613d e370 8d3b bc4b ca3d
000001c0: 4193 833d 5203 94be 8d3a 123d dc6b 2cbd
000001d0: 48f1 9fbd a39c 2abb 40c6 35bd f356 16be
000001e0: 1a96 303e 5dd0 cd3d 487d c0bd 52f0 58bc
000001f0: 3ae3 d83d 379e 543e c446 783d df9a bfbd
00000200: 1d04 1a3e f1b1 3e3c c1c0 b0be f4e2 ceba
00000210: c4b7 eebd a5de 0e3e c235 acbc 0713 4cbd
00000220: 04a3 cd3d 2aea 06bd 0838 b3bb 5fd1 a93c
00000230: 43e2 063e df60 96be 9b39 91bd da94 1ebe
00000240: 4cfa 4e3e a80b 183e bb33 863d bc58 37bd
00000250: 279c 6e3e fe68 d2be 987c 8fbd 9d94 f8bd
00000260: feae 70bd c32a 603e dfc2 6d3d f167 f5bc
00000270: 47ad 5a3e c33d 7f3e bbb7 e43d 76a0 163e
00000280: 49bc d43c 51a6 55bd b6ae 96be 2b20 0f3d
00000290: 5cee 39be 3712 863d aae5 ed3d 120e eb3c
000002a0: 3dfc b93a 8a6e 243d 537f 9d3c 9aef ccbd
000002b0: 25f5 ad3d 8f97 15be 6ac0 a8bc f6f3 b83d
000002c0: 535a cc3d 06a2 3a3d b896 153e 7989 443e
000002d0: 75fa 4bbc 088b 30bb d8ed 19be 92b8 973d
000002e0: c475 b23d d4f7 993d 8aba 48be efaf 49bd
000002f0: bdd3 66be 882f e53c 221c 9abe 83e0 e23d
00000300: 8834 7cbe 8a83 fbbc 6ca7 233d 10d0 663d
00000310: 1f4e c93b 470b 2bbd 6597 8ebc 21e1 31bd
00000320: 01c6 503d c80f 0ebc b025 9fbe 0c04 413d
00000330: f963 20bd 9c71 443d 5d0b 6d3d f61a 8bbc
00000340: 5a2b f4bc e07a 793d c836 c63d 9637 68bc
00000350: 63cc 8f3e ca01 7abd 7911 883d 0070 013e
00000360: 455b 963c 00d8 82bd d1e8 28be 00bb 81bd
00000370: 4462 ec3d ffba 5abd 78f7 83bd 2a78 b5bd
00000380: bf96 94be 0184 0c3c 6323 333c 3437 60bc
00000390: 4d6d 4cbd 9190 afbc e397 263e f322 f03c
000003a0: 27d5 5fbe 63b7 aebd f363 06be 1cb0 ee3d
000003b0: dbea 29bd 8d67 06be e003 f43c ceaf 87bd
000003c0: a323 66be 7b84 b7bc 60fb f7bd 93e0 adbd
000003d0: 6c77 b8bd adbc 8bbe 8fb9 183e d978 81bd
000003e0: e73e 47be 2817 5abd 82c4 6ebe 90da d93d
000003f0: 9b27 0dbd e4cf 323d d9d3 b8bd b364 0f3e

fc2.bias f4 [128]
-0.09282282 -0.06216835 0.04578943 -0.059247978 -0.041553933 0.029099649 0.004742508 -0.07282654
0.00041628204 -0.013676189 0.06332621 -0.084038585 -0.107753545 -0.08297692 -0.01596302 0.08042933
0.0050450247 0.070565686 -0.005932782 -0.041681614 0.067629695 -0.07234452 -0.072546735 -0.03208006
-0.05003275 -0.0012015034 0.049378432 0.025792675 -0.06093104 0.019102087 -0.026290495 -0.07642034
0.06311007 -0.07806367 -0.11082915 -0.0131423725 -0.070467606 0.04310649 -0.027628217 -0.0049408763
0.032398324 0.04355455 0.015912017 -0.08544574 0.04073991 0.05897538 -0.04851565 -0.046370216
0.06917395 0.0034592184 -0.02764491 -0.020417599 0.0071482128 -0.028066583 -0.060323123 0.011166451
-0.048003066 0.008153834 0.02639874 -0.014290935 -0.011782418 -0.08752866 0.029664623 0.050959583
0.027629737 0.0054272693 0.030928731 -0.08041654 0.02148473 -0.03610384 -0.035107113 0.05115365
-0.05434373 -0.051755924 -0.029983655 -0.03945165 -0.091882154 -0.064394444 -0.09516421 -0.065121666
-0.04960383 -0.04466572 0.06730636 0.038156252 0.00068343326 -0.028281372 0.017359432 0.012856366
-0.018550908 0.039208338 -0.055665184 -0.044798374 -0.06697719 -0.039772052 0.0034440863 0.013402873
-0.045605775 -0.083809204 0.031200612 0.0069136536 0.072498456 -0.0018716559 -0.05143125 0.051395327
-0.033057444 -0.11092897 0.041608833 0.014432052 0.10360987 0.017861897 -0.051757008 -0.033198595
-0.039072298 -0.00097511784 0.06769826 0.0016985913 -0.036204774 0.025658267 -0.09047434 -0.08612089
-0.00431813 -0.001231332 -0.026874471 0.06314781 0.03734824 -0.042373188 0.005854147 0.0025755556
00000000: e419 bebd 3da4 7ebd b38d 3b3d 02ae 72bd
00000010: 7534 2abd 6362 ee3c 0a67 9b3b 1526 95bd
00000020: 6e40 da39 1812 60bc 2cb1 813d 6c1c acbd
00000030: e4ad dcbd ceef a9bd e1c4 82bc 22b8 a43d
00000040: bc50 a53b be84 903d c867 c2bb 57ba 2abd
00000050: 7081 8a3d 5d29 94bd 6293 94bd 6266 03bd
00000060: 24ef 4cbd c47b 9dba 0a41 4a3d 294b d33c
00000070: d492 79bd fb7b 9c3c 2a5f d7bc 4482 9cbd
00000080: da3f 813d d8df 9fbd 65fa e2bd 1b53 57bc
00000090: 5251 90bd 6e90 303d 9254 e2bc 13e7 a1bb
000000a0: 1bb4 043d 4166 323d eb59 823c 2dfe aebd
000000b0: e4de 263d 2b90 713d 59b8 46bd b2ee 3dbd
000000c0: 12ab 8d3d 0eb4 623b 9477 e2bc cf42 a7bc
000000d0: 8e3b ea3b e4eb e5bc 6115 77bd 7df3 363c
000000e0: dd9e 44bd a997 053c 2c42 d83c 8724 6abc
000000f0: 0b0b 41bc 3a42 b3bd 3903 f33c ffba 503d
00000100: c257 e23c 3cd7 b13b 405e fd3c 6db1 a4bd
00000110: bf00 b03c 9fe1 13bd 7acc 0fbd 7d86 513d
00000120: 8897 5ebd 05fe 53bd 48a0 f5bc 0e98 21bd
00000130: b62c bcbd 3ce1 83bd 74e5 c2bd 825e 85bd
00000140: 632d 4bbd 67f3 36bd ebd7 893d bb49 1c3d
00000150: 6e28 333a 56ae e7bc 5e35 8e3c 82a3 523c
00000160: 13f8 97bc ec98 203d 2d01 64bd 807e 37bd
00000170: 562b 89bd 05e8 22bd 2eb6 613b b997 5b3c
00000180: 1fcd 3abd 29a4 abbd 6d98 ff3c ee8b e23b
00000190: 127a 943d 5a52 f5ba 93a9 52bd e883 523d
000001a0: 3e67 07bd ba2e e3bd 066e 2a3d 6a74 6c3c
000001b0: 6931 d43d 1d53 923c 28ff 53bd 40fb 07bd
000001c0: 460a 20bd 0d9f 7fba 63a5 8a3d 44a3 de3a
000001d0: 754b 14bd 4931 d23c 9c4a b9bd 2660 b0bd
000001e0: 1a7f 8dbb a564 a1ba da27 dcbc a453 813d
000001f0: 78fa 183d 828f 2dbd 25d4 bf3b a7ca 283b

fc3.weight f4 [4, 128]
-0.5675167 0.100926585 -0.3014126 -0.39179885 -0.4110001 0.17204696 -0.017488739 0.029052975
-0.10453685 0.26707646 -0.06108359 0.124486014 -0.12660585 -0.2125731 -0.0863366 -0.13954677
-0.11822243 0.14678508 -0.0655014 -0.33134073 0.2259361 0.028158305 0.06580043 0.19638173
-0.24505807 -0.37159476 0.18236166 -0.041390747 0.344655 -0.30898342 -0.08582477 -0.20556714
-0.21511032 0.24916478 -0.22513789 0.25960377 0.3052674 0.03583321 -0.019593773 -0.117240675
0.18913321 -0.34609804 0.12119775 0.23948246 0.122063436 0.31213394 0.19235829 -0.47260484
-0.236431 0.209954 0.03800792 0.5202428 -0.005078834 0.4392847 -0.17676197 -0.34015223
-0.39468005 -0.8456179 -0.12206227 -0.08235601 -0.047024664 0.31558657 0.17165378 0.18852903
0.15565486 -0.122024015 0.19106847 -0.29794496 0.4051774 -0.055630863 -0.13558029 0.25827727
0.07306276 0.005285193 -0.24979836 -0.03317582 0.07679052 0.0903805 0.1520278 -0.4144537
0.11726885 -0.10532506 -0.08933864 0.02499046 -0.00059267494 -0.17587928 0.21822792 0.36373368
-0.24916698 0.11294517 -0.15927573 -0.41703922 -0.7227576 -0.1604959 -0.032098316 -0.05196952
0.25577188 -0.20141329 0.1115073 0.16415416 0.32907844 0.10258771 -0.017524742 0.22543359
0.21178944 -0.35888517 0.15408377 0.08092337 -0.2497779 0.44916984 -0.39139542 0.055548083
0.3960048 -0.11533377 0.091675445 0.2812064 0.57431275 0.26652792 -0.1385517 -0.34981012
-0.27745953 0.044765476 0.13942336 -0.28180438 0.057220396 0.28440425 0.0739345 -0.54389447
0.31947717 -0.6702217 -0.30067083 0.39442694 -0.22333981 -0.5172014 0.03842087 -0.09363135
0.28618404 0.036601733 -0.13157369 -0.16882814 0.08496353 0.018350642 -0.6135621 -0.24377151
-0.09619152 -0.56215024 0.2039914 0.17788601 -0.004105376 0.43164355 -0.18092412 0.34729686
-0.4326483 0.34759584 0.19439507 0.20786232 -0.67314386 -0.32640228 0.28662932 0.017829625
-0.35665122 -0.2987945 -0.07708575 -0.6274444 -0.33067626 0.016382305 0.3706718 -0.25491598
-0.4953365 0.21618819 -0.09888732 0.10266142 -0.014262973 -0.15274276 0.24821962 0.14530312
0.1433485 0.3359828 0.09339838 0.31951228 -0.21546212 -0.5784976 0.18064618 -0.10815988
-0.391849 0.031563926 -0.18165198 -0.41371962 -0.10054504 -0.03379913 0.216174 -0.09678803
-0.31181476 0.545466 -0.098888904 0.087357044 0.37534004 -0.088536546 -0.3729889 0.17706537
0.022208411 0.09711275 -0.09951593 0.082920216 0.53992885 -0.030595303 0.84820175 -0.12084331
0.19596541 0.30814585 -0.33153692 0.2699385 0.06945579 0.12960452 -0.19884619 -0.2874172
0.5376743 -0.308891 0.417332 0.14785193 0.5852162 0.24082321 -0.14022872 0.6157538
-0.07957129 -0.05437277 0.3465934 0.16194774 -0.15449661 -0.20403714 -0.45616826 -0.49200627
0.11528847 0.37420008 0.16468346 0.08622893 -0.15363453 -0.15793669 -0.14954713 0.18752751
0.39736304 -0.09401493 0.16743085 0.4484251 0.070328586 -0.048229724 -0.5049843 -0.11339017
0.11692087 -0.006785015 0.06742079 -0.05284701 0.01611069 0.32473764 -0.059791837 0.5357659
00000000: c648 11bf 99b2 ce3d c152 9abe dc99 c8be
00000010: 9b6e d2be 142d 303e 8b44 8fbc 8100 ee3c
00000020: 6a17 d6bd 3fbe 883e c932 7abd 86f2 fe3d
00000030: f7a4 01be c3ac 59be 3ed1 b0bd 59e5 0ebe
00000040: 9a1e f2bd d44e 163e 9925 86bd 7ea5 a9be
00000050: cb5b 673e 3fac e63c 60c2 863d 4b18 493e
00000060: 81f0 7abe ab41 bebe 04bd 3a3e 5889 29bd
00000070: 9f76 b03e 1333 9ebe e6c4 afbd 3180 52be
00000080: e145 5cbe 0d25 7f3e 8c8a 66be c9ea 843e
00000090: 024c 9c3e d8c5 123d 1f83 a0bc e11b f0bd
000000a0: 23ac 413e c333 b1be 8736 f83d e43a 753e
000000b0: 65fc f93d 05d0 9f3e 92f9 443e 43f9 f1be
000000c0: f81a 72be 2efe 563e 31ae 1b3d a22e 053f
000000d0: 596c a6bb ede9 e03e 1701 35be 6f28 aebe
000000e0: 8113 cabe 6a7a 58bf c9fb f9bd 45aa a8bd
000000f0: ef9c 40bd 9094 a13e 02c6 2f3e c10d 413e
00000100: fd63 1f3e bae7 f9bd 74a7 433e 3e8c 98be
00000110: 6a73 cf3e 30dd 63bd 8fd5 0abe eb3c 843e
00000120: eea1 953d 6a2f ad3b 24cb 7fbe 5ee3 07bd
00000130: 5944 9d3d 6919 b93d 2dad 1b3e 4633 d4be
00000140: a72a f03d aab4 d7bd 2df7 b6bd cbb8 cc3c
00000150: be5d 1bba b319 34be 2477 5f3e 4d3b ba3e
00000160: a125 7fbe cc4f e73d 2d19 23be 2a86 d5be
00000170: a406 39bf 0a59 24be 8679 03bd fedd 54bd
00000180: 88f4 823e 493f 4ebe f05d e43d 0718 283e
00000190: f87c a83e 8119 d23d 0c90 8fbc 10d8 663e
000001a0: 55df 583e ccbf b7be 23c8 1d3e 27bb a53d
000001b0: c7c5 7fbe 97f9 e53e fb64 c8be 6386 633d
000001c0: 24c1 ca3e 1d34 ecbd 56c0 bb3d 49fa 8f3e
000001d0: 2906 133f 5976 883e 7fe0 0dbe 501a b3be
000001e0: 2d0f 8ebe 015c 373d ffc4 0e3e aa48 90be
000001f0: ef5f 6a3d 6f9d 913e f96a 973d ab3c 0bbf
00000200: 8392 a33e a693 2bbf 87f1 99be 54f2 c93e
00000210: 31b3 64be 5067 04bf 345f 1d3d cbc1 bfbd
00000220: b786 923e b3eb 153d 41bb 06be 49e1 2cbe
00000230: 5c01 ae3d 1654 963c 6812 1dbf 3d9f 79be
00000240: 0f00 c5bd 14e9 0fbf 1fe3 503e c027 363e
00000250: 6486 86bb 6200 dd3e 2c44 39be e5d0 b13e
00000260: 1484 ddbe 15f8 b13e 800f 473e dcd9 543e
00000270: 2853 2cbf 331e a7be 14c1 923e 6f0f 923c
00000280: fd9a b6be 98fb 98be 22df 9dbd 32a0 20bf
00000290: 664e a9be 2f34 863c b2c8 bd3e 5984 82be
000002a0: bf9c fdbe 7060 5d3e 6f85 cabd 2740 d23d
000002b0: 3faf 69bc 9968 1cbe 492d 7e3e 57ca 143e
000002c0: f3c9 123e f005 ac3e a647 bf3d 1d97 a33e
000002d0: 1aa2 5cbe 6b18 14bf 50fb 383e ed82 ddbd
000002e0: 6fa0 c8be 2d49 013d fa02 3abe 0fd3 d3be
000002f0: 8fea cdbd f570 0abd b85c 5d3e cd38 c6bd
00000300: 2fa6 9fbe a9a3 0b3f 4486 cabd 40e8 b23d
00000310: 922c c03e a652 b5bd 67f8 bebe a050 353e
00000320: 6aee b53c 0de3 c63d 02cf cbbd 13d2 a93d
00000330: c738 0a3f 00a3 fabc c023 593f b37c f7bd
00000340: 28ab 483e 4bc5 9d3e 35bf a9be 6135 8a3e
00000350: d63e 8e3d 0cb7 043e 569e 4bbe 5928 93be
00000360: 06a5 093f f626 9ebe 8aac d53e 7f66 173e
00000370: bbd0 153f 5c9a 763e 1e98 0fbe 0ba2 1d3f
00000380: 46f6 a2bd fbb5 5ebd b174 b13e a1d5 253e
00000390: 5c34 1ebe 1def 50be e38e e9be 3fe8 fbbe
000003a0: 5d1c ec3d 2797 bf3e c8a2 283e cb98 b03d
000003b0: 5f52 1dbe 28ba 21be e222 19be 3607 403e
000003c0: 2b73 cb3e e68a c0bd fe72 2b3e fa97 e53e
000003d0: 6f08 903d 888c 45bd a746 01bf 1b39 e8bd
000003e0: 3674 ef3d d554 debb e913 8a3d 1b76 58bd
000003f0: 91fa 833c 0344 a63e 49e8 74bd f427 093f

fc3.bias f4 [4]
0.045941 -0.040638167 -0.049179375 -0.07578121
00000000: a12c 3c3d 3574 26bd 5070 49bd 2e33 9bbd
