p2_continuous-control/checkpoint_critic.pth (torch_old, 169980 bytes, 5 tensors)

fcs1.weight f4 [256, 33]
0	0xbcb4aa25	-0.022053787
1	0xbd5c93b2	-0.05385179
2	0x3da0da00	0.0785408
3	0x3cbb4568	0.022860244
4	0xbcfa2c5b	-0.030538728
5	0xbd384a9f	-0.04499304
6	0x3d92c11d	0.0716574
7	0x3ca4dd8b	0.020125171
8	0xbd01881b	-0.03162394
9	0xbdb3c9a0	-0.08778691
10	0x3a64e61b	0.0008731798
11	0x3b910190	0.004425235
12	0x3cb605f3	0.022219634
13	0xbc95bc42	-0.018278245
14	0x3d61566a	0.05501405
15	0xbd99170d	-0.074751
16	0x3d6ba0a1	0.057526235
17	0x3cc236e6	0.023707818
18	0x3cad0afd	0.021123404
19	0x3be2e5f1	0.006924384
20	0xbc17e727	-0.00927142
21	0xbbc92966	-0.0061389683
22	0x3c5c67b3	0.013452458
23	0x3bd6abb6	0.0065512313
24	0x3b86f3da	0.004118425
25	0x3a8f557d	0.0010935512
26	0x3dfa5c3c	0.122246236
27	0x3e56b0ec	0.20965928
28	0xbc5c1fb2	-0.013435291
29	0xbdad3482	-0.08457281
30	0xbeee372b	-0.46526465
31	0xbde75e8e	-0.11297332
32	0x401ff2ea	2.4992013
33	0xbd66d42a	-0.05635468
34	0xbd077fc9	-0.03308085
35	0x3dc08483	0.094002746
36	0xbd4977a8	-0.04918638
37	0x3ea36a27	0.31916925
38	0x3e2c80c7	0.16846
39	0x3e1f7b2e	0.15574333
40	0x3dd86454	0.10566011
41	0x3d49b6e7	0.049246695
42	0xbe45097f	-0.19241904
43	0x3d071a13	0.03298385
44	0x3cb3fe7d	0.021971935
45	0x3c1eed0b	0.00970007
46	0xbe4e2de4	-0.20134693
47	0xbc815660	-0.015788257
48	0x3e2004a1	0.15626766
49	0x3ab5682c	0.001384025
50	0x3dc1c4a3	0.094613336
51	0x3e58049d	0.2109551
52	0x3a7a3a1c	0.0009545402
53	0xbcea5e76	-0.028609496
54	0xbd0bc46d	-0.034122873
55	0xbbdd90c9	-0.0067616445
56	0x3dea7178	0.11447424
57	0xbd966fa2	-0.07345511
58	0xbc135784	-0.008993033
59	0x3e8c0ec3	0.27355012
60	0x3eb7c445	0.3589193
61	0xbe277c53	-0.1635602
62	0x3d5094f8	0.050923318
63	0xbdd3adf8	-0.10335916
64	0x3e1e559a	0.15462342
65	0x3f9771f2	1.1831648
66	0xbc242500	-0.010018587
67	0xbe8a9dd6	-0.27073544
68	0xbd38c047	-0.045105245
69	0xbd51238f	-0.051059302
70	0xbc32d3c1	-0.010914744
71	0x3e358b21	0.17728855
72	0x3bb530d4	0.0055295024
73	0xbc9ffc85	-0.01952959
74	0xbcf3b1a6	-0.029747795
75	0x3e161f99	0.14660491
76	0xbc81b555	-0.015833536
77	0xbd1c71b2	-0.038194366
78	0xba96ab02	-0.0011495056
79	0x3d648623	0.055791985
80	0x3e46aec0	0.194026
81	0x3da64cc3	0.0812011
82	0xbd9385d9	-0.07203264
83	0xbd387c4f	-0.045040425
84	0x3da0a430	0.07843816
85	0xbdf072b8	-0.11740631
86	0x3ae2b0e6	0.0017295151
87	0x3cb3f993	0.021969592
88	0xbc279834	-0.010229159
89	0x3a84244e	0.001008162
90	0x3c8c7e31	0.017150017
91	0xbd1f52b4	-0.03889723
92	0x3e43fdef	0.19139837
93	0x3efd4796	0.49468678
94	0xbe019b79	-0.12656964
95	0x3dbedc38	0.09319347
96	0xbf1d5663	-0.6145994
97	0xbdde3616	-0.1085016
98	0xc023612b	-2.5528057
99	0x3e4a8266	0.19776306
100	0x3d45d1f6	0.048295937
101	0xbde3b794	-0.11118999
102	0xbcc91461	-0.02454585
103	0xbe9aa762	-0.30205828
104	0x3e2c015b	0.16797392
105	0x3e34a849	0.1764232
106	0xbb3abe25	-0.0028494683
107	0x3ea39da4	0.31956208
108	0xbf2d2131	-0.6762877
109	0x3d1631a9	0.036668453
110	0xbe6a3c54	-0.22874576
111	0x3d1a9a8f	0.037745055
112	0xbc3895d4	-0.011266191
113	0xbddeec7e	-0.10884951
114	0x3da4b975	0.080431856
115	0xbe1e765f	-0.15474842
116	0xbd497419	-0.049182985
117	0x3c2dccf8	0.01060795
118	0xbdea2ae3	-0.11433961
119	0xbe88b1c3	-0.2669812
120	0x3e47dbc9	0.19517435
121	0xbd3f99f0	-0.046777666
122	0x3d93fd12	0.07226004
123	0xbd3c5a7a	-0.045984723
124	0xbd67aa8d	-0.056559134
125	0xbc2beae8	-0.010493018
126	0x3ee1b3f7	0.44082615
127	0x3d973fd5	0.07385222
128	0xbe2d4879	-0.16922177
129	0xbf27cca0	-0.6554661
130	0xbdf1a0da	-0.11798258
131	0xbf7531ae	-0.9577893
132	0xbde9f763	-0.114241384
133	0xbe67c051	-0.22631957
134	0xbd8f152b	-0.06986459
135	0x3e529731	0.20565487
136	0xbe16d14e	-0.14728281
137	0x3d5aa2ea	0.053378023
138	0xbc8b6be7	-0.017019225
139	0xbc519c74	-0.012793649
140	0xbd47ceea	-0.048781313
141	0x3d59cc9e	0.053173654
142	0x3cb619db	0.022229126
143	0xbd8173f6	-0.06320946
144	0x3c87856a	0.016543109
145	0x3e5e73a7	0.21723805
146	0x3cc157bb	0.023601403
147	0x3d3b46dc	0.045721874
148	0x3d1a3188	0.037644893
149	0xbdbb4c73	-0.09145441
150	0x3d78b89d	0.060722936
151	0x3dd4fe59	0.104000755
152	0xbcb53fe7	-0.022125198
153	0x3b2f1e79	0.0026721044
154	0xbc1bbf3f	-0.009506046
155	0x3e339ed7	0.17541061
156	0xbd8523ca	-0.06500967
157	0x3d10a774	0.035315946
158	0x3eaa3099	0.33240202
159	0xbea42e85	-0.32066742
160	0xbdfc6550	-0.12324011
161	0x3df5e718	0.12006968
162	0x3ecb6849	0.39728
163	0xbe2e2e67	-0.17009889
164	0x3f26ab72	0.65105355
165	0x3ec899b5	0.3917977
166	0xbd6b16af	-0.05739468
167	0xbdac1352	-0.084021226
168	0x3e08a040	0.1334238
169	0x3d2980b9	0.041382525
170	0x3ded5df1	0.115901835
171	0xbdc8f18d	-0.09811697
172	0x3ce15197	0.027504725
173	0xbd8a56c0	-0.067548275
174	0x3e155a2d	0.1458518
175	0x3de8df0e	0.11370669
176	0x3d2f5565	0.042806048
177	0xbe140dc9	-0.14458384
178	0xbebcce1f	-0.36876008
179	0x3ea0eba6	0.31429785
180	0xbeab1b21	-0.33419135
181	0x3dcc57c6	0.09977679
182	0x3dac82f2	0.08423413
183	0x3e69deb2	0.22838858
184	0xbe45e09e	-0.19323966
185	0x3c29b282	0.010357501
186	0xbce5ff3b	-0.028075805
187	0x3bb92b7b	0.005650935
188	0xbe7d4b59	-0.24735774
189	0x3d3ced53	0.046124768
190	0xbdf11bc5	-0.11772875
191	0xbca0dc15	-0.019636193
192	0x3eac174d	0.33611527
193	0x3e8f300f	0.27966353
194	0xbd6547da	-0.055976726
195	0xbe9d2f2b	-0.3070005
196	0x3d4ab4cc	0.049488828
197	0xbeee573d	-0.46550933
198	0x3e33cdc5	0.17558964
199	0x3e4246bd	0.18972297
200	0xbe05bf00	-0.13061142
201	0xbd1c08b5	-0.03809424
202	0xbd05d364	-0.0326723
203	0xbe34e3fd	-0.17665096
204	0xbd453862	-0.048149474
205	0xbd957091	-0.07296861
206	0xbd0dca99	-0.03461704
207	0xbdb06c4e	-0.086144075
208	0x3d5f7135	0.054551322
209	0x3dc64c9a	0.09682579
210	0xbd8c8baf	-0.0686258
211	0x3cd75fff	0.026290892
212	0xbdda17c4	-0.10649064
213	0x3e331c6d	0.17491312
214	0x3d304b81	0.043040756
215	0x3d19bd9e	0.03753435
216	0x3da7a59a	0.08185883
217	0xbc03bca0	-0.008040577
218	0x3d073a7a	0.033014752
219	0xbd511b86	-0.05105164
220	0xbd07c555	-0.033147175
221	0x3e10ba6f	0.14133619
222	0xbe040613	-0.12892942
223	0x3ddb1bc3	0.106986545
224	0x3d309e1c	0.043119535
225	0x3ee8ac8f	0.45444152
226	0xbe84bbed	-0.25924626
227	0x3e1b6fae	0.15179321
228	0xbee25fc1	-0.4421368
229	0xbdb755c1	-0.08951903
230	0x3fc8df61	1.569317
231	0xbe0ca3e4	-0.13734394
232	0x3e3fc38b	0.18726937
233	0xbe8b042a	-0.27151614
234	0xbe17885b	-0.14798109
235	0x3ea66075	0.32495466
236	0xbe89f5b5	-0.26945272
237	0xbdd5392d	-0.10411296
238	0xbec5b645	-0.38615623
239	0xbf4ae172	-0.7925025
240	0xbeea6234	-0.45778048
241	0x3df050da	0.11734171
242	0xbd905e73	-0.07049265
243	0xbc882e28	-0.016623572
244	0x3e349bef	0.17637609
245	0x3d888344	0.06665662
246	0x3e9af1de	0.30262655
247	0x3b974632	0.004616522
248	0x3e66d5c5	0.22542484
249	0xbe0452b4	-0.12922174
250	0x3d49ce42	0.04926897
251	0xbc3e4dfe	-0.0116152745
252	0x3dec74e3	0.11545732
253	0xbe996996	-0.29963368
254	0x3e3c6caf	0.18400835
255	0x3e061d57	0.1309713

fcs1.bias f4 [256]
0	0xbeabc573	-0.3354908
1	0xbeb9566b	-0.36198744
2	0xbeb0a25b	-0.34498867
3	0xbf0e68da	-0.5562874
4	0x3eeb72e6	0.45986098
5	0xbe6a8718	-0.22903097
6	0xbf34a9da	-0.7057167
7	0xbf11b93e	-0.5692328
8	0xbed71aa9	-0.42012528
9	0xbe6d91ba	-0.23200122
10	0xbf2878a7	-0.658091
11	0xbece49bb	-0.40290627
12	0xbeec7851	-0.46185544
13	0xbe8d4a35	-0.27595678
14	0xbe2c3ac6	-0.16819295
15	0xbef505a4	-0.47855866
16	0xbe6b4302	-0.2297478
17	0xbe97b79c	-0.2963227
18	0xbf475953	-0.7787067
19	0xbf556c2c	-0.8336818
20	0xbd2fb49c	-0.042896852
21	0xbf2090a2	-0.6272069
22	0xbf29a7e1	-0.6627179
23	0xbd9f3c78	-0.077752054
24	0xbf2cc1e1	-0.67483336
25	0xbe2969a1	-0.165442
26	0x3d6671f3	0.056261014
27	0xbeb83189	-0.35975292
28	0xbe86abea	-0.26303035
29	0xbf07d173	-0.5305397
30	0xbf71964a	-0.9436995
31	0xbeb3d880	-0.35126114
32	0xbdbc49aa	-0.09193738
33	0xbf42aaac	-0.76041675
34	0xbf253423	-0.6453268
35	0xbeac7879	-0.33685663
36	0xbeeef293	-0.46669444
37	0xbedc2cbb	-0.43002877
38	0xbeacc066	-0.33740538
39	0xbf11b781	-0.5692063
40	0xbe87fed5	-0.2656161
41	0xbe865e38	-0.26243758
42	0xbeac7528	-0.33683133
43	0xbebd297d	-0.36945716
44	0xbec5c60e	-0.38627666
45	0xbecf02bc	-0.40431774
46	0xbd83732c	-0.06418452
47	0xbea3b3eb	-0.31973204
48	0xbee2ad22	-0.44272715
49	0xbf0d5cb4	-0.5521958
50	0xbf763751	-0.96178156
51	0xbf06d2fe	-0.526657
52	0xbf0fe18d	-0.5620354
53	0xbe80de00	-0.25169373
54	0xbe9aea5b	-0.30256924
55	0xbe3c55da	-0.18392125
56	0xbf3967fc	-0.7242429
57	0xbf4b8cfb	-0.79511994
58	0xbf54ba43	-0.8309671
59	0xbe59e72f	-0.21279596
60	0xbf2760bf	-0.65382
61	0xbef030d6	-0.4691226
62	0xbec46bda	-0.38363534
63	0xbdedceff	-0.11611747
64	0xbecd4329	-0.40090302
65	0xbf4cb03e	-0.79956424
66	0xbeb3d9a9	-0.35127
67	0xbf32df81	-0.6987229
68	0xbed9ce5f	-0.4254026
69	0xbf2df916	-0.679582
70	0xbe1e6afa	-0.15470496
71	0xbef5979b	-0.47967228
72	0xbf13cabc	-0.57731223
73	0xbf296216	-0.6616529
74	0xbf2147d1	-0.6300021
75	0xbf3f5d6a	-0.74751914
76	0xbf1e1b70	-0.61760616
77	0xbeda4b67	-0.42635652
78	0xbf1a00d2	-0.601575
79	0x3cbf9c00	0.023389816
80	0xbc32afd8	-0.010906182
81	0xbecb60fd	-0.39722434
82	0xbf62be60	-0.8857174
83	0xbea19fab	-0.3156713
84	0xbe2af226	-0.16693935
85	0xbf0910ed	-0.5354145
86	0xbf06f85d	-0.5272272
87	0xbf406ecb	-0.75169057
88	0xbedadb85	-0.42745605
89	0xbec695d8	-0.38786197
90	0xbe87707c	-0.26453006
91	0xbefdd5a7	-0.49577066
92	0xbe84175f	-0.2579908
93	0xbdf8e7b5	-0.121535696
94	0xbf40668a	-0.7515646
95	0xbeb256f5	-0.34831968
96	0xbeebe23d	-0.46071044
97	0xbf73bfb2	-0.9521438
98	0xbf0c49e7	-0.54800266
99	0xbf2e15bd	-0.6800192
100	0x3d877caa	0.06615575
101	0xbed62f2b	-0.4183286
102	0xbf226938	-0.634418
103	0xbf2d1aee	-0.67619216
104	0xbecec575	-0.40385023
105	0xbf0e6aac	-0.5563152
106	0xbeb4aa99	-0.35286406
107	0xbe1f5f08	-0.15563595
108	0xbf388420	-0.72076607
109	0xbeb279bd	-0.34858504
110	0xbeca5743	-0.395197
111	0xbf050d9c	-0.5197389
112	0xbf253160	-0.64528465
113	0xbf20f15c	-0.62868285
114	0xbef2b951	-0.4740701
115	0xbe902b98	-0.2815826
116	0x3ca6c7bc	0.020358913
117	0xbeefe11c	-0.46851432
118	0xbe947377	-0.28994343
119	0xbeebbd9e	-0.46043104
120	0xbda67e65	-0.081295766
121	0xbe61000e	-0.21972677
122	0xbf50d649	-0.81576973
123	0xbf11b0c1	-0.5691033
124	0xbe26cc56	-0.16288885
125	0xbed86ba5	-0.42269626
126	0xbf011b88	-0.50432634
127	0xbf3ecd45	-0.74531966
128	0xbe282f18	-0.16424215
129	0xbe8a9d6e	-0.27073234
130	0xbef448db	-0.47711834
131	0xbe957436	-0.29190224
132	0x3c06fb12	0.008238571
133	0xbf27a1b7	-0.6548113
134	0xbf4c2a0d	-0.79751664
135	0xbdab5e4f	-0.08367597
136	0xbecedbc1	-0.40402034
137	0xbe21bbf0	-0.15794349
138	0xbf4c780d	-0.7987068
139	0xbe9a112b	-0.30091223
140	0xbeab92cd	-0.33510438
141	0x3e36803d	0.17822357
142	0xbe9af91e	-0.30268186
143	0xbea6c932	-0.32575375
144	0xbeb61e06	-0.3556978
145	0xbf0b032d	-0.5430172
146	0xbe97e644	-0.29667866
147	0xbe69eb94	-0.22843772
148	0xbeeb3d39	-0.45945147
149	0xbeb8296d	-0.35969105
150	0xbeef728e	-0.46767086
151	0xbf0b15b2	-0.5432998
152	0xbe82ea88	-0.25569558
153	0xbe9511cd	-0.29115143
154	0xbeda2434	-0.42605746
155	0xbf175523	-0.59114283
156	0xbf6f0426	-0.93365705
157	0xbef7c75f	-0.48394296
158	0xbf1b0863	-0.6055967
159	0xbec5cbfe	-0.38632196
160	0xbf0968ae	-0.53675354
161	0xbf00d356	-0.50322473
162	0x3d6e5f36	0.05819627
163	0xbe9b3445	-0.30313316
164	0x3d8ee556	0.06977336
165	0xbe95a036	-0.29223794
166	0xbf204bfc	-0.6261594
167	0xbf32866b	-0.69736356
168	0xbf17c450	-0.59283924
169	0xbdaa2e84	-0.083096534
170	0xbf184f98	-0.5949645
171	0x3dba8868	0.09108049
172	0xbf09df4e	-0.5385636
173	0xbf31a16a	-0.69386923
174	0xbee44f6d	-0.44591847
175	0xbf385aa1	-0.7201329
176	0xbf10dba8	-0.5658517
177	0xbf02cff9	-0.5109859
178	0xbf5f0950	-0.87123585
179	0xbee8c8cf	-0.45465705
180	0xbe88bed9	-0.26708105
181	0xbd4caa14	-0.049966887
182	0xbf0ff5b7	-0.56234306
183	0xbf074966	-0.5284637
184	0xbef4e58f	-0.4783139
185	0x39b9c41b	0.0003543206
186	0xbeb8eb40	-0.36116982
187	0xbf0b4139	-0.54396397
188	0xbed5084d	-0.41607895
189	0xbe975ba6	-0.2956211
190	0xbf13dfef	-0.5776357
191	0xbe92cba9	-0.28671005
192	0xbeae28ca	-0.34015495
193	0xbf0a2b39	-0.539722
194	0xbf0d9bc0	-0.5531578
195	0xbea576c5	-0.32317176
196	0xbec4f23d	-0.38466063
197	0xbe69a4e2	-0.22816804
198	0xbf06448f	-0.5244836
199	0xbe8ca174	-0.2746693
200	0xbeb6b8fe	-0.35688013
201	0xbe13ae7c	-0.1442203
202	0xbe909cc4	-0.28244603
203	0xbebf4552	-0.37357575
204	0xbf263a82	-0.64933026
205	0xbe8833c5	-0.26601997
206	0xbf268217	-0.6504225
207	0xbeaf468c	-0.3423351
208	0xbe8e77c4	-0.2782575
209	0xbe7f5aa5	-0.24936922
210	0xbeb20771	-0.34771302
211	0xbf2ba6bc	-0.6705129
212	0xbf3a61c9	-0.7280546
213	0xbf1dea6d	-0.6168583
214	0xbf138164	-0.5761931
215	0xbef3e22a	-0.47633487
216	0xbee46d18	-0.44614482
217	0xbdfa4c2d	-0.122215606
218	0xbe55448d	-0.20826931
219	0xbe259446	-0.16169843
220	0xbea2ffc0	-0.31835747
221	0xbed1fddf	-0.41014
222	0xbe5beae3	-0.21476321
223	0xbee8085e	-0.45318884
224	0xbc375e2f	-0.011191889
225	0xbf04a83e	-0.5181922
226	0xbec10ebe	-0.3770656
227	0xbf19c6ae	-0.60068786
228	0xbe99dde6	-0.30052108
229	0xbf56f0f5	-0.8396142
230	0xbf14146d	-0.5784367
231	0xbf2f4417	-0.6846327
232	0xbe197ad4	-0.14988261
233	0xbe661c09	-0.22471632
234	0xbf51aef0	-0.8190756
235	0xbf013f0e	-0.5048684
236	0xbf1b2713	-0.606065
237	0xbe8ad34a	-0.27114326
238	0xbe861bba	-0.2619303
239	0xbe3407d9	-0.17581119
240	0xbefbae97	-0.4915664
241	0xbf01926a	-0.50614035
242	0xbf09ba39	-0.5379978
243	0xbf1dc489	-0.61628014
244	0xbe261b97	-0.16221462
245	0xbf18a449	-0.5962568
246	0xbee337b5	-0.4437844
247	0xbf0cd8a7	-0.55018085
248	0xbea272f0	-0.31728315
249	0xbe9f1909	-0.31073788
250	0xbea3c944	-0.3198949
251	0xbec65975	-0.38740125
252	0xbf56bf4f	-0.83885664
253	0xbeeaabb8	-0.45834136
254	0xbf5de3a5	-0.86675483
255	0xbf16cfec	-0.58911014

fc2.weight f4 [128, 260]
0	0xbe49cc11	-0.19706751
1	0xbde19837	-0.11015361
2	0x3dc51da7	0.09624796
3	0xbe295991	-0.16538073
4	0x3e314682	0.17312053
5	0xbd71a218	-0.058992475
6	0xbea11103	-0.3145829
7	0x3d8bede6	0.06832485
8	0x3e42c8a9	0.19021858
9	0xbba7d7ac	-0.0051221456
10	0x3e2e282b	0.1700751
11	0x3c3dde12	0.01158859
12	0xbd7b8593	-0.061406683
13	0x3dc00476	0.09375851
14	0x3d8bb4a7	0.06821566
15	0xbd3b5d73	-0.045743417
16	0xbf14a53b	-0.5806462
17	0xbda1147e	-0.07865237
18	0xbd3c6dac	-0.04600303
19	0xbebba1a3	-0.36646757
20	0x3d624fe1	0.05525196
21	0xbe801a5b	-0.25020108
22	0xbd87f167	-0.06637841
23	0xbe54ea73	-0.2079256
24	0x3e33e689	0.17568411
25	0xbca063de	-0.01957887
26	0x3cb72a48	0.022359028
27	0xbc1aa9b8	-0.009439878
28	0x3dbe8369	0.09302408
29	0x3df3384c	0.11875972
30	0x3c43f2b5	0.011959721
31	0x3dfc7470	0.12326896
32	0xbe66dfd6	-0.22546324
33	0xbec1f3d6	-0.37881345
34	0xbd69c860	-0.057075858
35	0xbf1a62e3	-0.6030714
36	0xbd4d9b3d	-0.050196875
37	0xbe1b171b	-0.15145533
38	0x3e34ba58	0.1764921
39	0x3e6639a9	0.22482933
40	0x3d84815d	0.064699866
41	0x3d6912a7	0.056902554
42	0x3cead528	0.028666094
43	0xbce1189b	-0.027477553
44	0xbb20b9a3	-0.002452471
45	0x3d22fbb4	0.039790824
46	0x3d2f428f	0.042788085
47	0x3c205d45	0.009787862
48	0xbf2a95b6	-0.6663469
49	0xbf4b0167	-0.79299015
50	0x3d128279	0.03576896
51	0x3d8a1a8f	0.06743347
52	0xbe377c8e	-0.17918608
53	0x3d52d056	0.051468216
54	0xbde6b8dc	-0.11265728
55	0x3deef1ee	0.11667238
56	0xbe579270	-0.21051955
57	0xbe696af3	-0.22794704
58	0xbe5fcbad	-0.2185504
59	0xbcfc6601	-0.030810358
60	0x3d9698c2	0.07353355
61	0xbef7ecaf	-0.48422763
62	0xbf0c11bc	-0.5471456
63	0x3dcf9773	0.101363085
64	0xbed55aee	-0.41670936
65	0xbf182374	-0.594291
66	0xbc74eb11	-0.014948622
67	0x3dac7833	0.08421364
68	0x3cfda207	0.03096105
69	0x3d326b6b	0.043559473
70	0xbc5e33af	-0.013562127
71	0x3d72f24a	0.059313096
72	0xbde94f31	-0.11392058
73	0xbd8dc958	-0.06923169
74	0x3e85add5	0.26109186
75	0xbd3c9374	-0.04603906
76	0xbe03ebd5	-0.12882932
77	0x3e250e3d	0.16118713
78	0xbd6cecd4	-0.057843044
79	0x3dd71a85	0.10503105
80	0xbe4f60a6	-0.20251712
81	0x3e985220	0.29750156
82	0xbdd2993a	-0.10283132
83	0xbe01467b	-0.12624542
84	0xbedfe0d8	-0.4372623
85	0xbe6c5ed7	-0.23083054
86	0x3d01c9c9	0.031686578
87	0xbe6db9a8	-0.23215353
88	0xbd14dcff	-0.03634357
89	0x3e09dc50	0.13462949
90	0xbc3a5b88	-0.011374362
91	0xbe445dfe	-0.1917648
92	0xbe2c15af	-0.16805147
93	0xb8a93135	-8.0677135e-05
94	0xbd8f20eb	-0.069887005
95	0xbded599f	-0.115893595
96	0xbee4c8f5	-0.44684568
97	0xbd170828	-0.036873013
98	0xbe8627a2	-0.26202112
99	0xbe93cecd	-0.28868714
100	0xbe2017c4	-0.15634066
101	0x3b9ded8f	0.004819579
102	0xba285c5a	-0.0006422453
103	0xbc82273e	-0.015887853
104	0xbebba49a	-0.3664902
105	0xbf1ab476	-0.6043161
106	0x3db19219	0.08670444
107	0xbe109d05	-0.14122398
108	0xbe7c9c5c	-0.24669021
109	0xbe5eef3e	-0.21770951
110	0x3d8a08c8	0.06739956
111	0x3d539295	0.051653463
112	0xbf13734a	-0.5759779
113	0x3d416298	0.047213167
114	0xbe9fa6aa	-0.31181842
115	0xbde78eff	-0.11306571
116	0x3d739283	0.059465896
117	0xbd7c8c71	-0.061657373
118	0x3d6173e0	0.055042148
119	0x3d56f40b	0.05247883
120	0x3e05a30c	0.13050479
121	0x3d85f6e1	0.06541229
122	0x3f050bec	0.51971316
123	0x3e5e47b5	0.21707042
124	0xbd3753c1	-0.04475761
125	0x3d2f5336	0.042803966
126	0x3e3bf39d	0.1835465
127	0xbe8c263b	-0.27372918
128	0x3c94c10e	0.018158462
129	0xbe966ce1	-0.29379943
130	0xbe6604c4	-0.22462755
131	0x3dbcfbc2	0.092277065
132	0xbbcd593f	-0.0062667425
133	0xbd5a71dc	-0.05333124
134	0xbe27042e	-0.16310188
135	0xbd13ebaa	-0.03611342
136	0x3d0c08e9	0.034188185
137	0x3b8a4ce3	0.0042205914
138	0xbe1ad65a	-0.15120831
139	0xbd77d91b	-0.060509782
140	0xbdc9fc60	-0.0986259
141	0x3de315d9	0.110881515
142	0x3eab2084	0.33423245
143	0xbd98173c	-0.074263066
144	0xbc8338dc	-0.016018324
145	0x3d146828	0.036232144
146	0xbe0f6961	-0.14005043
147	0xbd5ceeb4	-0.053938583
148	0x3dff150a	0.12455185
149	0x3e33eae5	0.17570074
150	0xbf0e49fd	-0.5558165
151	0xbea9f70a	-0.33196288
152	0xbdd2b86c	-0.10289082
153	0xbd73945d	-0.059467662
154	0x3d15aae1	0.036539916
155	0xbde40bbf	-0.11135053
156	0x3d3fb04e	0.046798997
157	0xbe04d3e8	-0.12971461
158	0xbe2e87c1	-0.17043974
159	0xbd7de34a	-0.061984338
160	0x3dce93ef	0.1008681
161	0x3d90537d	0.07047174
162	0x3e281fb8	0.1641835
163	0xbb4ce192	-0.003126238
164	0x3b1781f5	0.0023118232
165	0xbe6cb393	-0.23115377
166	0xbe58fd0d	-0.21190281
167	0x3e88fe9f	0.2675676
168	0xbd2f8342	-0.042849787
169	0x3e50c70a	0.20388427
170	0xbda25bb4	-0.07927647
171	0xbe359b2c	-0.17734975
172	0x3e0c2110	0.13684487
173	0xbd79d00a	-0.060989417
174	0xbe66957a	-0.22517958
175	0x3bae265e	0.0053146323
176	0xbe42c0c8	-0.19018853
177	0x3dc4dfc1	0.0961299
178	0xbdf7f644	-0.12107518
179	0x3e8d1e85	0.27562347
180	0x3d4eff6a	0.05053655
181	0x3ce5de9c	0.02806025
182	0xbf336e9c	-0.7009065
183	0x3dc22439	0.09479565
184	0x3e5afd72	0.21385744
185	0xbd133eea	-0.03594867
186	0x3b8ba641	0.0042617624
187	0xbe94abc4	-0.29037297
188	0x3d00f987	0.031487968
189	0x3df33cbf	0.11876821
190	0xbc4c619c	-0.012474444
191	0x3db8b8b4	0.09019604
192	0x3ec7d0b4	0.39026415
193	0x3dc5b928	0.096544564
194	0xbe373c44	-0.17894083
195	0xbef23126	-0.47303122
196	0xbcaf791a	-0.02142005
197	0x3d7ac28c	0.06122069
198	0xbd3c92b6	-0.046038352
199	0xbe74b355	-0.23896535
200	0xbe3e5300	-0.1858635
201	0x3da61c70	0.08110893
202	0x3c108997	0.0088218665
203	0xbcc348d2	-0.023838434
204	0x3d014eb0	0.031569183
205	0x3e0cb5f6	0.13741288
206	0xbd9d563c	-0.076824635
207	0x3d1d5324	0.038409367
208	0xbe19188e	-0.14950773
209	0xbe3286de	-0.1743426
210	0xbd18375e	-0.037162177
211	0xbe0ee993	-0.13956289
212	0x3d813144	0.06308225
213	0x3d2924db	0.041294914
214	0x3e1bf640	0.15230656
215	0x3ca4141e	0.020029124
216	0xbd0e1df7	-0.034696545
217	0x3df61722	0.12016131
218	0x3e1c2369	0.15247883
219	0xbd878183	-0.06616499
220	0xbe039e49	-0.1285335
221	0xbe0df05b	-0.1386122
222	0x3dbf8041	0.09350634
223	0x3dd67bea	0.104728535
224	0x3e1aef9a	0.15130463
225	0xbd54d6bd	-0.051962603
226	0x3df41671	0.11918343
227	0x3d15c9e6	0.0365695
228	0x3dea838a	0.1145087
229	0x3e0a1e02	0.1348801
230	0x3e3a1a2c	0.18174046
231	0xbd47ed84	-0.048810497
232	0xbe9a6a94	-0.30159438
233	0xbc9ee91b	-0.019398263
234	0xbeb8cc54	-0.3609339
235	0xbe09ce7d	-0.13457675
236	0xbdc76c51	-0.097374566
237	0xbd1d5025	-0.03840651
238	0xbe9ddb0d	-0.30831185
239	0xbe08a197	-0.13342892
240	0xbe288222	-0.16455892
241	0x3db99e3d	0.09063385
242	0x3e29eaab	0.16593425
243	0xbe822877	-0.25421497
244	0x3e21a79a	0.15786591
245	0x3e43783a	0.19088832
246	0xbcaf9cf7	-0.021437151
247	0xbe4be628	-0.19912016
248	0x3e18cb67	0.14921342
249	0xbd1bdeaf	-0.038054164
250	0xbd5fd07e	-0.054642193
251	0xbe03db0a	-0.12876526
252	0xbd423f3a	-0.04742358
253	0xbebe182d	-0.3712782
254	0xbe7e86fd	-0.24856181
255	0xbb074046	-0.0020637675

fc2.bias f4 [128]
0	0x3f413229	0.75467163
1	0xbefac50a	-0.48978454
2	0xbec89681	-0.39177325
3	0xbf25544c	-0.6458175
4	0x3ebb8137	0.3662202
5	0x3eff6236	0.49879616
6	0x3f0a6975	0.54067165
7	0xbe575282	-0.21027568
8	0x3efb11c2	0.49036986
9	0x3dc120c0	0.09430075
10	0xbeb79197	-0.35853264
11	0x3ea691ee	0.3253321
12	0xbee5a039	-0.44848803
13	0x3effef96	0.49987477
14	0xbea1fce6	-0.3163826
15	0xbeb1b231	-0.34706262
16	0xbec08c7e	-0.37607187
17	0x3ead872f	0.338922
18	0xbdfb2305	-0.12262539
19	0xbeae80e0	-0.340827
20	0xbf1ade6c	-0.6049564
21	0x3ec6525a	0.38734704
22	0x3ee39ff7	0.4445798
23	0x3e6ccab5	0.23124202
24	0x3ee9270c	0.45537603
25	0x3e78712b	0.2426192
26	0x3eecc1f3	0.46241722
27	0xbed7d1d5	-0.42152277
28	0xbf04a0e6	-0.5180801
29	0xbe9cc13f	-0.30616185
30	0xbf1436d4	-0.5789616
31	0x3e828f8c	0.25500143
32	0xbf1c4a6d	-0.61051065
33	0x3f3b0a1b	0.73062295
34	0xbe91f513	-0.2850729
35	0xbe91efe6	-0.2850334
36	0xbebca477	-0.36844227
37	0x3f2e75d0	0.6814852
38	0xbf2b7825	-0.669802
39	0xbefd3455	-0.4945399
40	0x3e3954c8	0.18098748
41	0xbeced4ec	-0.40396821
42	0xbe40aeca	-0.18816677
43	0x3e9ff0f9	0.31238535
44	0x3f47df05	0.78074676
45	0x3e2c961e	0.1685414
46	0xbe8cb43e	-0.27481264
47	0xbeb5fd50	-0.35544825
48	0xbe0400e3	-0.12890963
49	0x3e8251c8	0.2545302
50	0x3eacb801	0.33734134
51	0x3f3197fd	0.6937254
52	0x3e8e4433	0.27786407
53	0xbefbc097	-0.49170372
54	0x3ef1ef0d	0.47252694
55	0x3f103cf8	0.5634303
56	0xbef881dd	-0.48536578
57	0xbea977fe	-0.3309936
58	0x3f357ab4	0.70890355
59	0xbf075b65	-0.5287383
60	0xbed6183f	-0.41815373
61	0x3f43078b	0.76183385
62	0x3ecf9ecf	0.4055085
63	0x3ec7eb1f	0.3904657
64	0xbef050e7	-0.46936724
65	0xbf04881d	-0.5177019
66	0x3ee37ae8	0.44429708
67	0x3f0ad62b	0.54233044
68	0xbed7284b	-0.4202293
69	0xbf0f2662	-0.5591794
70	0xbe9aff0a	-0.30272704
71	0xbea0bde8	-0.31394887
72	0x3f72b997	0.9481444
73	0x3ef6067e	0.48051828
74	0xbec9bd8b	-0.39402422
75	0x3eb3653e	0.3503818
76	0xbed935f3	-0.42423972
77	0xbf05f963	-0.5233366
78	0xbef24deb	-0.47325072
79	0x3ef8add5	0.48570123
80	0x3f01c2fb	0.5068814
81	0xbf0b3688	-0.54380083
82	0x3e898eef	0.26866862
83	0x3f0de8ee	0.5543355
84	0xbe9f0848	-0.31061006
85	0xbef7bd4b	-0.48386607
86	0xbe352188	-0.17688572
87	0xbebd3c9d	-0.36960307
88	0xbeac6252	-0.33668762
89	0xbf1c4b64	-0.61052537
90	0xbf0ca8a1	-0.5494481
91	0x3f0ff91b	0.5623948
92	0x3f1b7a4e	0.607335
93	0x3ea6b39f	0.32558915
94	0x3e559b1f	0.20859955
95	0x3ef63187	0.4808466
96	0x3ec3a384	0.3821069
97	0xbebf34ae	-0.3734488
98	0xbe723a02	-0.2365494
99	0xbec858aa	-0.39130145
100	0xbec3c3e1	-0.3823538
101	0xbe2fb888	-0.17160237
102	0x3f0b9c89	0.5453573
103	0xbe8faf66	-0.28063506
104	0xbdd63e1e	-0.10461067
105	0xbf20166e	-0.62534225
106	0x3f006ce7	0.5016617
107	0x3ec1ee00	0.37876892
108	0xbece319d	-0.40272227
109	0xbf1cf560	-0.6131191
110	0xbee2322d	-0.44178906
111	0xbedb0860	-0.42779827
112	0xbeca4fda	-0.39514047
113	0xbf09f0f9	-0.5388332
114	0xbeafc6c3	-0.3433133
115	0xbe1c839f	-0.15284584
116	0x3f1e8c59	0.61932904
117	0x3f30b43e	0.6902503
118	0x3f1b32b9	0.6062427
119	0x3ea453ff	0.32095334
120	0x3ed43791	0.41448644
121	0xbea0bf49	-0.3139594
122	0xbe5f541e	-0.21809432
123	0x3f13b935	0.5770448
124	0xbe2be115	-0.1678508
125	0x3f35ccd1	0.7101565
126	0x3e87b303	0.26503763
127	0xbeb4eeb8	-0.35338378

fc3.weight f4 [1, 128]
0	0x3d1d8d50	0.038464844
1	0xbde1528a	-0.11002071
2	0xbdbc0357	-0.091803245
3	0xbcbe1c4d	-0.023206854
4	0x3cf88912	0.030338798
5	0x3ce99fd8	0.028518602
6	0x3cc8bc36	0.024503808
7	0xbe199106	-0.14996728
8	0x3cf7ba84	0.030240305
9	0x3d5f27a8	0.05448118
10	0xbd3b7391	-0.04576451
11	0x3d121c32	0.03567142
12	0xbc9dcb64	-0.019262023
13	0x3c84ee26	0.01622684
14	0xbd22a792	-0.03971059
15	0xbd56c23f	-0.05243134
16	0xbdab4116	-0.083620235
17	0x3cabb461	0.020960035
18	0xbded5f9a	-0.115905
19	0xbdc01390	-0.09378731
20	0xbcacd22e	-0.021096315
21	0x3d0d5f81	0.034514908
22	0x3cf14fe6	0.029457044
23	0x3c96c9c6	0.01840676
24	0x3cad9ae0	0.021192014
25	0x3d0a754e	0.033803277
26	0x3ce6dbb9	0.028180944
27	0xbcae2b63	-0.021260923
28	0xbd929afa	-0.07158466
29	0xbd5da664	-0.05411376
30	0xbdb3940a	-0.087684706
31	0x3d22a226	0.039705418
32	0xbd45b8d8	-0.048271984
33	0x3d359cdc	0.044339046
34	0xbd2d968a	-0.042379893
35	0xbcf63182	-0.030052904
36	0xbd00d099	-0.031448934
37	0x3d0d93f7	0.03456494
38	0xbc2d4cfc	-0.010577437
39	0xbce35981	-0.02775264
40	0x3d04be66	0.03240814
41	0xbd35ec75	-0.044414956
42	0xbe234257	-0.15943275
43	0x3ca02119	0.019547032
44	0x3d50487c	0.050850376
45	0x3d3c9db8	0.04604885
46	0xbcfc3e5d	-0.030791456
47	0xbccad109	-0.024757879
48	0xbd56e940	-0.05246854
49	0x3d1aa499	0.03775463
50	0x3ccdbfae	0.025115814
51	0x3d1be7ee	0.038062982
52	0x3d4541ee	0.04815858
53	0xbd10b513	-0.035328936
54	0x3cd4d499	0.02598028
55	0x3cddf82d	0.027095878
56	0xbd0951d3	-0.0335253
57	0xbcc9f6cf	-0.02465382
58	0x3d18ba02	0.037286766
59	0xbd087f4c	-0.033324525
60	0xbd11b139	-0.035569403
61	0x3d2a1373	0.041522454
62	0x3cc8c645	0.024508605
63	0x3c4f00a0	0.012634426
64	0xbd69e12b	-0.057099503
65	0xbd2d82e8	-0.04236117
66	0x3c73fd37	0.014891914
67	0x3cded614	0.02720169
68	0xbd8b819b	-0.0681183
69	0xbce91214	-0.028451003
70	0xbd73b577	-0.05949923
71	0xbd035aa0	-0.03206885
72	0x3db3b68d	0.08775053
73	0x3d00d338	0.031451434
74	0xbd2eba1b	-0.042657953
75	0x3ca31210	0.019906074
76	0xbd84e503	-0.06488993
77	0xbca91a91	-0.02064255
78	0xbc850efb	-0.016242495
79	0x3d24fd19	0.040280435
80	0x3cc4871b	0.023990205
81	0xbc805e77	-0.015670044
82	0x3c8736ce	0.016505625
83	0x3ca768f2	0.020435784
84	0xbdc331f2	-0.09531011
85	0xbc9acaec	-0.018895589
86	0xbd0bf069	-0.03416482
87	0xbda64565	-0.08118705
88	0xbdcf77e1	-0.10130287
89	0xbcc4f4da	-0.024042536
90	0xbd26e310	-0.040743887
91	0x3c990474	0.018678881
92	0x3c8e1ee4	0.017348714
93	0x3c94de9e	0.018172558
94	0x3d315070	0.0432896
95	0x3d0fb089	0.035080466
96	0x3cabe614	0.020983733
97	0xbd660b90	-0.05616337
98	0xbd35d105	-0.04438879
99	0xbd21e543	-0.03952528
100	0xbd248471	-0.04016537
101	0xbd305d2d	-0.04305761
102	0x3cecd87f	0.028911827
103	0xbcc8cd52	-0.024511967
104	0xbd4fb4a2	-0.050709374
105	0xbcbe1d07	-0.0232072
106	0x3ca77d08	0.020445362
107	0x3d0bc1ef	0.034120496
108	0xbcf94999	-0.030430602
109	0xbd5a1b56	-0.053248726
110	0xbca1a935	-0.019734005
111	0xbd41c46f	-0.047306474
112	0xbceda864	-0.029010959
113	0xbcb41d3d	-0.021986598
114	0xbdb63f2b	-0.08898767
115	0xbcfd3e57	-0.030913515
116	0x3c9ea50b	0.019365808
117	0x3d030a5d	0.031992305
118	0x3d63c358	0.055606216
119	0x3cb4316a	0.021996219
120	0x3c9c9483	0.019113785
121	0xbd20ad23	-0.039227616
122	0xbd5180e6	-0.051148318
123	0x3d307d00	0.04308796
124	0xbd896e39	-0.067104764
125	0x3d803064	0.0625923
126	0x3cbd73f6	0.023126584
127	0xbdc87c97	-0.097893886
